actor_final.pth (torch_old, 39729 bytes, 4 tensors)

fc1.weight f4 [256, 33]
0.054615244 -0.115457855 -0.16353261 0.041873354 0.00010513963 0.17527089 -0.10094088 -0.09089916
-0.090078086 -0.01952847 0.01922981 0.18455732 0.14541897 0.16106057 -0.40132156 0.014401781
-0.021589307 0.04853851 -0.07725925 0.07711807 0.01466597 -0.45391878 0.17603786 0.4753489
-0.13300173 0.1736781 0.08795746 0.007349535 0.14768411 -0.0065344498 0.047509357 0.0086537525
0.7635935 0.01426196 0.13888164 -0.07432995 -0.043405555 -0.15515463 0.080895685 0.06314521
0.18340124 0.12774119 -0.00035313566 -0.0724964 0.007922117 -0.104499675 0.04664206 -0.03580483
-0.058589667 -0.013375736 -0.017370133 -0.17129168 0.004754547 -0.19538093 -0.15162522 0.18881862
0.5185229 -0.20902564 0.20508233 0.12756929 -0.25379145 -0.01989573 0.013488539 0.30725777
-0.022182167 -0.31267828 0.00024204543 -0.0757274 -0.20057237 0.10161439 -0.18675262 -0.2923523
-0.08126478 -0.08317434 -0.59464854 -0.011275657 0.026788825 -0.28179327 -0.09338906 -0.2739545
-0.160886 0.13444164 0.019795544 0.118301466 -0.065628454 0.28374746 0.10998129 0.19454797
-0.026375148 -0.23110202 0.08827034 0.19400889 0.12165544 -0.19386905 -0.18884985 -0.01803013
0.1863974 -0.052846245 -0.40741912 0.21480784 -0.21929677 -0.019053647 -0.017041476 0.13219528
-0.267476 -0.093804225 0.09191182 0.042393364 0.52225083 0.21249098 -0.043289475 -0.03328964
0.17660983 0.2453415 0.18898545 -0.27511278 -0.013055493 0.19604467 -0.13778864 -0.06822018
-0.40654716 -0.020919112 -0.0038074588 0.34075618 0.08668853 0.21192624 0.14272861 0.09751034
-0.022140577 -0.22631092 0.011716023 0.6857504 0.17576624 0.07361298 -0.016626077 0.10982003
0.072420284 0.07563643 0.10601398 -0.12684545 -0.31659007 0.06889945 0.21548118 -0.15396255
-0.0519585 0.1809987 0.29301608 -0.066640295 0.040266033 0.16636446 0.030189388 0.12067519
0.15574676 0.3006055 -0.07551084 -0.07218673 0.1844103 -0.28631923 0.3792605 0.31019348
0.1198138 -0.04781293 -0.3004784 -0.016671002 -0.47036853 -0.24685526 -0.12822923 -0.060745157
0.07141573 0.16187024 0.10877966 -0.062677175 -0.14353986 -0.25529227 -0.031055955 0.0061827586
-0.060374018 0.2348302 -0.08107187 0.09992912 0.23958337 -0.044868056 -0.060051598 -0.004938863
0.091968566 0.3722071 0.05150507 0.03199864 -0.058951866 -0.08550312 0.06863879 0.42185122
-0.091541186 0.25205153 -0.021668285 0.02755839 -0.055907488 0.20186248 -0.07804286 0.20280498
-0.16894896 0.016865531 -0.11874636 0.24434693 -0.05729276 0.13971147 0.32057694 -0.07838626
-0.00023482437 0.0905318 0.22669956 -0.18546982 -0.07928492 0.18732089 -0.23342264 0.09829536
0.10263125 0.042627335 0.2598573 -0.108498834 0.14986637 -0.2444045 -0.06631674 0.30161843
-0.23106673 0.21519366 0.29656956 0.061117433 -0.16466871 -0.018059924 -0.23912507 0.10214979
-0.15107718 -0.17800301 0.1368312 -0.00975504 -0.004775108 -0.15033944 -0.121598884 -0.56261474
-0.023472652 -0.022052387 -0.048599936 0.09910381 -0.11630852 -0.24281228 -0.33401492 0.20050678
0.16095811 -0.10324842 0.18039367 0.11635371 -0.36655214 -0.094579816 -0.51727855 -0.07164407
00000000: 3cb4 5f3d 2b75 ecbd 1875 27be 6583 2b3d
00000010: 697e dc38 367a 333e 18ba cebd 5729 babd
00000020: dc7a b8bd 2bfa 9fbc d687 9d3c 98fc 3c3e
00000030: b6e8 143e 10ed 243e 057a cdbe 73f5 6b3c
00000040: 0fdc b0bc 51d0 463d 193a 9ebd 14f0 9d3d
00000050: 8949 703c 0b68 e8be 4543 343e ee60 f33e
00000060: 9b31 08be acd8 313e 0a23 b43d 5ed4 f03b
00000070: 813a 173e f01e d6bb 2c99 423d 78c8 0d3c
00000080: dd7a 433f ffaa 693c fd36 0e3e 4d3a 98bd
00000090: 06ca 31bd dbe0 1ebe a3ac a53d 4752 813d
000000a0: 89cd 3b3e 96ce 023e 1125 b9b9 fe78 94bd
000000b0: c4cb 013c ed03 d6bd bf0b 3f3d 16a8 12bd
000000c0: b8fb 6fbd e725 5bbc cf4b 8ebc 1667 2fbe
000000d0: 08cc 9b3b f011 48be a443 1bbe ab59 413e
000000e0: ebbd 043f d10a 56be 1a01 523e 86a1 023e
000000f0: f4f0 81be 5ffc a2bc 08ff 5c3c e450 9d3e
00000100: 60b7 b5bc 5e17 a0be 93cd 7d39 f816 9bbd
00000110: d862 4dbe 351b d03d 143c 3fbe 33af 95be
00000120: 266e a6bd 4f57 aabd e33a 18bf 89bd 38bc
00000130: 3d74 db3c 3547 90be c342 bfbd c443 8cbe
00000140: 4dbf 24be 12ab 093e 442a a23c 0a48 f23d
00000150: 3668 86bd 5947 913e df3d e13d 9537 473e
00000160: b210 d8bc 02a6 6cbe 14c7 b43d 44aa 463e
00000170: 7d26 f93d 9c85 46be db61 41be ecb3 93bc
00000180: f6de 3e3e 4e75 58bd 3d99 d0be 96f6 5b3e
00000190: 558f 60be 6516 9cbc 919a 8bbc 335e 073e
000001a0: 9df2 88be 6e1c c0bd 443c bc3d aaa4 2d3d
000001b0: 3bb2 053f 3c97 593e 4e50 31bd b85a 08bd
000001c0: 35d9 343e cd3a 7b3e 6785 413e 95db 8cbe
000001d0: b5e6 55bc efbf 483e 7718 0dbe 06b7 8bbd
000001e0: f326 d0be 8f5e abbc 8f86 79bb 9877 ae3e
000001f0: c289 b13d 3103 593e 7327 123e 80b3 c73d
00000200: 2860 b5bc 0dbe 67be 90f4 3f3c 578d 2f3f
00000210: 11fc 333e 67c2 963d 6933 88bc 53e9 e03d
00000220: 1651 943d 46e7 9a3d dc1d d93d c6e3 01be
00000230: 1818 a2be 281b 8d3d 19a7 5c3e 5ca8 1dbe
00000240: 70d2 54bd b957 393e 3406 963e b57a 88bd
00000250: ffed 243d 725b 2a3e bc4f f73c 8e24 f73d
00000260: 147c 1f3e f7e8 993e 6da5 9abd a3d6 93bd
00000270: 0ed6 3c3e 6f98 92be 6f2e c23e aed1 9e3e
00000280: f060 f53d 7ed7 43bd 4ed8 99be a091 88bc
00000290: 25d4 f0be a0c7 7cbe 864e 03be eacf 78bd
000002a0: 6942 923d 50c1 253e dfc7 de3d e45c 80bd
000002b0: 1dfc 12be abb5 82be 0f69 febc bd98 ca3b
000002c0: bf4a 77bd 5477 703e 0209 a6bd a3a7 cc3d
000002d0: 5855 753e 91c7 37bd aaf8 75bd 30d6 a1bb
000002e0: 045a bc3d ee91 be3e fbf6 523d 0211 033d
000002f0: 8377 71bd 431c afbd 7e92 8c3d e2fc d73e
00000300: f279 bbbd e60c 813e b081 b1bc 22c2 e13c
00000310: 40ff 64bd 0ab5 4e3e efd4 9fbd 1cac 4f3e
00000320: f500 2dbe 9529 8a3c 4b31 f3bd 1536 7a3e
00000330: d0ab 6abd 8610 0f3e a922 a43e fa88 a0bd
00000340: 303b 76b9 bd68 b93d ee23 683e cdeb 3dbe
00000350: 2260 a2bd 0cd1 3f3e 5806 6fbe 144f c93d
00000360: 5530 d23d 009a 2e3d 040c 853e a334 debd
00000370: 9276 193e 2c45 7abe 12d1 87bd bb6d 9a3e
00000380: c29c 6cbe ba5b 5c3e f7d7 973e 4656 7a3d
00000390: ea9e 28be 68f2 93bc 34dd 74be e933 d13d
000003a0: fab3 1abe 6c46 36be 7a1d 0c3e 9ad3 1fbc
000003b0: 8278 9cbb 95f2 19be d608 f9bd 8507 10bf
000003c0: b849 c0bc 35a7 b4bc ba10 47bd f0f6 ca3d
000003d0: 2933 eebd c8a3 78be 0104 abbe a651 4d3e
000003e0: 34d2 243e e873 d3bd 1eb9 383e db4a ee3d
000003f0: b9ac bbbe 10b3 c1bd 5e6c 04bf 20ba 92bd

fc1.bias f4 [256]
0.0823745 0.43128264 0.09862662 -0.041408654 -0.30313468 -0.10026221 -0.34856325 -0.008527512
0.008326718 0.2677512 -0.1620032 0.016927298 0.45921102 0.25527805 -0.026203465 0.109984055
-0.66097987 -0.26309955 -0.26561886 -0.064875975 -0.23480628 -0.036389746 -0.024619984 0.25619435
0.40550134 0.29632977 -0.118884005 0.05443423 0.36608618 -0.4467907 -0.15609276 -0.291193
-0.54708225 -0.19833262 0.3886344 0.26106998 0.048021093 0.4552217 -0.3685362 0.10829061
0.085688576 -0.015546654 0.1283206 -0.04682119 -0.10497631 0.010236496 -0.07031219 -0.124571435
-0.011896475 0.25519407 -0.23883462 0.076337114 -0.19707905 -0.28319833 -0.07935271 0.28626186
-0.53049564 0.37467876 -0.25302404 -0.312895 -0.29715142 0.19605175 0.20588402 -0.4059685
-0.31579602 0.05056395 -0.32158804 0.15463984 -0.5388346 0.334816 0.19207367 -0.15942787
-0.26721093 0.06898774 -0.059390806 0.31066912 0.011101159 0.080702625 0.20298283 -0.14112194
0.21319196 0.10566073 0.13699172 0.0774795 0.48684606 -0.2170178 0.26472655 0.14711632
0.14468312 -0.23062904 0.20071054 0.112105146 -0.16854683 -0.5042151 -0.29438645 -0.073998116
0.07772239 -0.25544092 0.15108544 -0.061188474 -0.14843205 -0.16365276 0.076827876 -0.11664801
-0.11834269 0.3234452 0.05170696 0.110847294 0.25798473 -0.37676165 0.35747144 0.4645131
-0.11985533 -0.17978312 0.095709726 0.024360504 -0.25883758 -0.2167137 0.19332218 -0.12656206
0.088935904 0.40424013 -0.06385576 0.13501298 -0.17451182 0.31340685 -0.2459473 0.10749746
0.11148661 0.2972292 0.16167913 -0.3739561 0.28085876 0.23116763 0.029909294 -0.009439981
-0.20003863 0.07694769 0.21825536 -0.07329202 0.30795035 -0.3885329 -0.09918275 -0.41166404
0.07506536 0.13378009 0.05054465 -0.14096956 0.20878133 0.08550834 -0.04447761 -0.07761322
0.23614608 0.06402387 0.24990706 0.21518402 0.2574471 0.1204977 0.23128897 -0.46961176
-0.089114815 -0.22362036 -0.60697395 0.04850986 0.23417439 0.07979465 0.26120484 -0.07050106
-0.34242412 0.075274006 0.18998288 0.18274374 0.057502404 0.2192607 -0.3192965 -0.21023722
-0.036465053 -0.24922109 0.20134258 0.027229866 0.19139798 0.24757805 -0.056127444 0.06311787
-0.30702004 0.17070657 -0.15448105 0.04707244 0.041849073 0.34602755 0.057931397 0.082772076
-0.09597522 0.28811353 0.15165758 0.062406134 -0.32782537 0.056414783 0.043579657 -0.61125094
-0.12713042 -0.6142041 0.21528794 -0.0852681 0.27937114 -0.2450682 0.26643625 -0.3234912
0.13919584 -0.028289016 0.32819983 0.08682001 0.34631246 0.13062547 -0.16128749 0.073183574
0.4051637 -0.49228203 0.3043627 0.19354676 0.14592493 -0.32655478 -0.3825604 0.16403604
-0.24440157 -0.20419334 0.10030251 0.2738452 0.08077477 0.1358756 -0.110233866 0.13799953
-0.10830528 0.045018665 0.13440008 -0.21194096 -0.10883144 0.065984465 -0.14635505 0.022874095
0.12797377 -0.00019918362 0.19174182 -0.038351174 0.05161394 -0.5867551 0.12960264 0.0580896
-0.119999856 -0.026496978 0.15780273 -0.44482726 0.093320124 -0.017953085 -0.3332924 -0.10685743
00000000: f6b3 a83d 14d1 dc3e c1fc c93d 1f9c 29bd
00000010: 7834 9bbe 4656 cdbd e276 b2be fab6 0bbc
00000020: c96c 083c af16 893e 2be4 25be 1eab 8a3c
00000030: b51d eb3e ceb3 823e a6a8 d6bc 523f e13d
00000040: fa35 29bf fcb4 86be 32ff 87be b2dd 84bd
00000050: 0f71 70be 6a0d 15bd d9af c9bc e82b 833e
00000060: df9d cf3e 89b8 973e 7579 f3bd 6df6 5e3d
00000070: a66f bb3e c0c1 e4be c8d6 1fbe 4017 95be
00000080: 950d 0cbf b517 4bbe 17fb c63e f7aa 853e
00000090: c4b1 443d d212 e93e c7b0 bcbe 78c7 dd3d
000000a0: 7e7d af3d 65b7 7ebc 7a66 033e 93c7 3fbd
000000b0: d2fd d6bd fab6 273c d6ff 8fbd 4f1f ffbd
000000c0: 6fe9 42bc cca8 823e 1091 74be a256 9c3d
000000d0: 17cf 49be 5fff 90be ac83 a2bd ea90 923e
000000e0: 90ce 07bf e5d5 bf3e 5e8c 81be c633 a0be
000000f0: 3b24 98be cac1 483e 43d3 523e 1adb cfbe
00000100: 04b0 a1be 251c 4f3d 30a7 a4be e859 1e3e
00000110: 10f1 09bf 016d ab3e f6ae 443e 0f41 23be
00000120: dfcf 88be 7249 8d3d c643 73bd 0610 9f3e
00000130: a3e1 353c 6b47 a53d bbda 4f3e 4582 10be
00000140: fe4e 5a3e a764 d83d 8f47 0c3e 92ad 9e3d
00000150: e343 f93e ea39 5ebe 3d8a 873e a9a5 163e
00000160: d027 143e 052a 6cbe 1087 4d3e 6297 e53d
00000170: 8a97 2cbe 3e14 01bf d2b9 96be 538c 97bd
00000180: eb2c 9f3d 27c9 82be 24b6 1a3e c4a0 7abd
00000190: 92fe 17be 9794 27be ef57 9d3d 27e5 eebd
000001a0: a75d f2bd 9c9a a53e adca 533d e803 e33d
000001b0: 9316 843e e7e6 c0be 7f06 b73e a9d4 ed3e
000001c0: b676 f5bd 1119 38be 7603 c43d ae8f c73c
000001d0: 5c86 84be 32ea 5dbe 40f6 453e 7c99 01be
000001e0: 0724 b63d 90f8 ce3e cfc6 82bd d840 0a3e
000001f0: 3ab3 32be dd76 a03e 9cd9 7bbe a127 dc3d
00000200: 1753 e43d 6d2e 983e 378f 253e 2d77 bfbe
00000210: b8cc 8f3e 35b7 6c3e 5604 f53c 26aa 1abc
00000220: edd6 4cbe c096 9d3d 557e 5f3e 201a 96bd
00000230: abab 9d3e c9ed c6be 5320 cbbd a1c5 d2be
00000240: debb 993d a6fd 083e e807 4f3d 535a 10be
00000250: c6ca 553e ff1e af3d 282e 36bd aef3 9ebd
00000260: 47d0 713e f21e 833d a3e7 7f3e 3359 5c3e
00000270: 1bd0 833e 80c7 f63d 04d7 6c3e f470 f0be
00000280: d481 b6bd bcfc 64be a562 1bbf 46b2 463d
00000290: 69cb 6f3e 616b a33d a4bc 853e dc62 90bd
000002a0: 3752 afbe 4229 9a3d df8a 423e 2d21 3b3e
000002b0: a487 6b3d e085 603e d57a a3be 6d48 57be
000002c0: 615c 15bd d033 7fbe c02c 4e3e 2b11 df3c
000002d0: d5fd 433e 1a85 7d3e e4e5 65bd f143 813d
000002e0: bb31 9dbe b4cd 2e3e 4830 1ebe 08cf 403d
000002f0: ef69 2b3d 862a b13e 7949 6d3d 6884 a93d
00000300: a88e c4bd 9e83 933e 204c 1b3e 939d 7f3d
00000310: bad8 a7be 3013 673d 9580 323d f17a 1cbf
00000320: 7a2e 02be 7b3c 1dbf 7174 5c3e 0ba1 aebd
00000330: bc09 8f3e 29f3 7abe 556a 883e a3a0 a5be
00000340: 5b89 0e3e 5ebe e7bc cf09 a83e b0ce b13d
00000350: de4f b13e afc2 053e 8c28 25be 45e1 953d
00000360: 9e71 cf3e 640c fcbe 6ed5 9b3e 1f31 463e
00000370: 586d 153e 3032 a7be f5de c3be 10f9 273e
00000380: 6844 7abe 0f18 51be 676b cd3d 7035 8c3e
00000390: 3e6d a53d f922 0b3e 4bc2 e1bd c04f 0d3e
000003a0: 29cf ddbd 7e65 383d 2da0 093e 0d07 59be
000003b0: 05e3 debd dd22 873d 19de 15be 7462 bb3c
000003c0: 8e0b 033e f2db 50b9 f857 443e 1f16 1dbd
000003d0: 2469 533d 9535 16bf 8eb6 043e 5cef 6d3d
000003e0: 7cc2 f5bd 3110 d9bc 0a97 213e 66c0 e3be
000003f0: 9f1e bf3d 5912 93bc 4da5 aabe 11d8 dabd

fc2.weight f4 [4, 256]
-0.024437068 -0.051705834 0.17800122 0.065707535 -0.26461202 0.34251818 -0.198423 -0.41617113
-0.16471532 -0.05107434 0.61352986 0.23254271 -0.13192122 0.6977707 -0.22948736 -0.44804838
0.25699127 0.5470699 0.8843514 0.21436284 0.0699286 0.63084584 0.35291284 -0.13201727
-0.105653 -0.10650878 -0.48027888 -0.28557977 0.2254635 0.49573785 0.03705155 0.7542145
0.6526636 0.03809399 -0.2649907 -0.7336906 -0.0060228254 -0.24075928 -0.45604327 0.034249693
0.17027311 -0.34163436 0.49102005 -0.3959158 -0.16034487 -0.17399508 -0.05423399 -0.06228377
0.12326259 0.3623388 0.38350445 0.91763294 0.13523066 -0.41391808 -0.44190556 0.30356047
0.8754166 -0.2048882 0.96145016 0.6152016 0.22772852 -0.34155566 0.3782435 -0.05827817
-0.6831882 -0.030002052 0.0003889088 0.29352248 0.7099664 0.0790478 0.082432166 -0.38420603
0.14263324 -0.08769135 -0.11813154 -0.1198687 -0.44687334 0.230109 0.08629593 0.23047873
-0.16272211 -0.11963752 -0.32131147 -0.48291582 -0.24837835 0.26236978 0.09534369 -0.20934808
0.19046794 0.20679268 0.055668388 -0.3609987 0.7560704 0.9033358 0.41987115 0.3334961
0.23025437 -0.21493901 -0.28455743 -0.18448678 -0.09003367 -0.15060934 -0.27255207 -0.20377345
0.20250309 -0.38523892 -0.3758519 -0.14334095 -0.43329224 -0.45176 -0.21031302 -0.17720181
0.34938377 0.032845285 0.3379635 0.4247601 0.3747115 -0.58009624 -0.35451853 -0.7197469
-0.31192842 -0.039142065 -0.03412316 -0.08294525 0.8921204 0.29328284 0.5520258 0.13078663
-0.0453948 -0.6352782 -0.056293845 0.9301713 0.07989609 0.11351579 -0.4167885 0.45106757
0.21328305 0.59669155 -0.63749194 0.015832843 0.07752829 0.22653113 -0.2333205 -0.06293064
-0.0007057914 -0.4008842 -0.080791995 0.13983428 -0.51538104 0.7854686 -0.36515424 0.51574224
-0.33072114 0.02396618 -0.16013564 -0.23159572 0.007963063 -0.5058436 0.06852014 -0.83454674
-1.01474 0.71485996 -0.35202473 0.39405093 -0.0531788 0.41502088 -0.07057794 -0.37448978
-0.48917505 0.2958129 0.13398941 0.0022186532 0.41819754 0.13690728 -0.5787416 0.49719626
0.4473511 -0.38836956 -0.112879485 -0.8371706 0.40835202 0.5637037 0.6540702 0.25967374
-1.2205662 0.54021883 0.72457725 0.022218725 -0.49590513 -0.05118417 0.117846236 0.3426978
0.6311141 -0.4038506 0.18182816 -0.34566563 0.58151054 -0.46813205 0.53170073 -0.03552348
0.0041455543 0.348784 0.18919116 0.044170536 -0.0872895 0.19251981 -0.21620731 -0.06767101
0.33283594 -0.032199476 0.052211855 0.13655223 -0.08820956 -0.43406406 0.0009691452 -0.48525316
-0.6312972 -1.4804766 -0.21047468 -1.0067141 0.023570275 0.067402475 -0.5778615 -0.12140456
-0.5771514 0.7531219 -0.040126834 -0.082427524 0.18153925 0.38489288 -0.0003950846 -0.3537759
0.50620687 -0.14197469 -0.0622586 0.25442111 0.5079376 -0.10689058 0.5268683 -0.091643125
0.24121629 0.46278146 -0.31101453 0.14196661 0.8428323 -0.30019575 -0.20796627 -0.82152784
-0.44002903 0.09992922 -0.4804037 0.55364543 -0.6590025 0.36598107 0.02437325 -0.17615692
00000000: 3f30 c8bc 7fc9 53bd f445 363e ac91 863d
00000010: 3a7b 87be 8b5e af3e 662f 4bbe 6214 d5be
00000020: 22ab 28be 5433 51bd 4b10 1d3f ad1f 6e3e
00000030: 5b16 07be 1aa1 323f bcfe 6abe 9966 e5be
00000040: 5c94 833e c60c 0c3f da64 623f ef81 5b3e
00000050: ba36 8f3d 1d7f 213f feb0 b43e 892f 07be
00000060: 9a60 d8bd 4621 dabd 1de7 f5be 8337 92be
00000070: e7df 663e 5ad1 fd3e 5ec3 173d 3414 413f
00000080: f614 273f 7208 1c3d dcac 87be 26d3 3bbf
00000090: 1f5b c5bb 9a89 76be 817e e9be 6849 0c3d
000000a0: 135c 2e3e b3ea aebe fb66 fb3e 7ab5 cabe
000000b0: 7231 24be c42b 32be 7624 5ebd 441d 7fbd
000000c0: 1971 fc3d 7984 b93e b25a c43e fee9 6a3f
000000d0: e879 0a3e 12ed d3be 7241 e2be 476c 9b3e
000000e0: 4d1b 603f 36ce 51be 9921 763f da7d 1d3f
000000f0: aa31 693e 62e0 aebe 22a9 c13e 17b5 6ebd
00000100: 6ce5 2ebf ddc6 f5bc 75e6 cb39 9448 963e
00000110: 5cc0 353f d0e3 a13d 32d2 a83d a7b6 c4be
00000120: 730e 123e 8697 b3bd f3ee f1bd b97d f5bd
00000130: 95cc e4be b2a1 6b3e ecbb b03d 9e02 6c3e
00000140: a0a0 26be 8404 f5bd f082 a4be be40 f7be
00000150: e556 7ebe 5555 863e 8d43 c33d 585f 56be
00000160: 070a 433e 76c1 533e 8904 643d d2d4 b8be
00000170: d48d 413f 0441 673f 5af9 d63e 00c0 aa3e
00000180: cdc7 6b3e f918 5cbe 83b1 91be 1aea 3cbe
00000190: 9363 b8bd 5639 1abe f28b 8bbe fda9 50be
000001a0: f85c 4f3e 093e c5be a96f c0be f8c7 12be
000001b0: 7bd8 ddbe 164d e7be 4c5c 57be 6474 35be
000001c0: 6ee2 b23e c788 063d 8d09 ad3e 287a d93e
000001d0: 30da bf3e 3081 14bf 7483 b5be 5541 38bf
000001e0: 15b5 9fbe 6e53 20bd bac4 0bbd 33df a9bd
000001f0: 0162 643f 2b29 963e 9051 0d3f eeec 053e
00000200: e6ef 39bd 98a1 22bf 6094 66bd b51f 6e3f
00000210: 90a0 a33d f77a e83d 4d65 d5be 54f2 e63e
00000220: df66 5a3e c7c0 183f ac32 23bf e1b3 813c
00000230: 27c7 9e3d c7f7 673e 92eb 6ebe c8e1 80bd
00000240: dc04 39ba b240 cdbe 4676 a5bd b830 0f3e
00000250: 03f0 03bf 7814 493f 7ff5 babe af07 043f
00000260: 4854 a9be b954 c43c 99fa 23be 6e27 6dbe
00000270: 8277 023c f77e 01bf 4a54 8c3d dba4 55bf
00000280: 00e3 81bf 1001 373f 963c b4be 0bc1 c93e
00000290: 03d2 59bd 9e7d d43e 2b8b 90bd 20bd bfbe
000002a0: 2775 fabe ca74 973e 8534 093e d366 113b
000002b0: fd1d d63e 6c31 0c3e 6928 14bf 8290 fe3e
000002c0: 340b e53e 60d8 c6be 5c2d e7bd d050 56bf
000002d0: 8413 d13e e34e 103f 2571 273f f5f3 843e
000002e0: 833b 9cbf c84b 0a3f e57d 393f 0b04 b63c
000002f0: 47e7 fdbe 7ea6 51bd 5e59 f13d 1676 af3e
00000300: b290 213f 81c5 cebe 2931 3a3e 16fb b0be
00000310: e0dd 143f 01af efbe 8a1d 083f 1281 11bd
00000320: 6ed7 873b d193 b23e 54bb 413e 2aec 343d
00000330: d6c4 b2bd ea23 453e 7365 5dbe 1997 8abd
00000340: 7969 aa3e 99e3 03bd 19dc 553d 59d4 0b3e
00000350: 37a7 b4bd a53d debe 3c0e 7e3a 1a73 f8be
00000360: b19c 21bf 4280 bdbf ad86 57be 02dc 80bf
00000370: 7316 c13c 4f0a 8a3d bbee 13bf f4a2 f8bd
00000380: 32c0 13bf 99cc 403f 095c 24bd c3cf a8bd
00000390: 6de5 393e ae10 c53e 5b23 cfb9 1d22 b5be
000003a0: c696 013f d061 11be e002 7fbd 7c43 823e
000003b0: 3308 023f 73e9 dabd d7e0 063f 64af bbbd
000003c0: 6701 773e b1f1 ec3e 4c3d 9fbe b25f 113e
000003d0: dcc3 573f 42b3 99be 1cf5 54be a64f 52bf
000003e0: 7c4b e1be b1a7 cc3d 79f7 f5be b5bb 0d3f
000003f0: 63b4 28bf df61 bb3e 69aa c73c 7b62 34be

fc2.bias f4 [4]
-0.07074437 0.03757924 0.05759059 -0.056101307
00000000: 6de2 90bd b0ec 193d 1ce4 6b3d 7cca 65bd
