actor_solved.pth (torch_old, 39729 bytes, 4 tensors)

fc1.weight f4 [256, 33]
00000000: 72f3 b73d 97a4 f5bb 1058 8cbd 961e cfbd
00000010: 656e cf3c 890e d2bb a234 8abd 9fab debc
00000020: 5bbc 83bd 932c 4fbe df0c 593c f2ab 113e
00000030: 5f11 043d 2879 533e 4a7b 8ebe 9861 c2bc
00000040: 21a2 44bd d30f c93c 021c 363d 8ad1 d13d
00000050: 16d5 c6bd c9e1 c1be 1809 c5bc d920 8d3e
00000060: 515b 54be 0c37 8c3d e4f7 0e3e 4c95 d53d
00000070: 9561 893e f01e d6bb c377 4abd 78c8 0d3c
00000080: 728d 2d3f 76b6 f5bd 3725 b13d bf96 abbd
00000090: 5832 f8bc b019 49be 0ff5 46be 7a7d 86bd
000000a0: 395f 233e d67d da3d a5a3 933e bf4c 333d
000000b0: debf 053e 311e 72be 76a2 91bb 5e4d 443d
000000c0: 7304 d2bc db0d 163e 95eb 683b 1d53 c4bc
000000d0: 9a75 28bd 268f a9bd 2272 743d 9820 153e
000000e0: e3be 993e 751c 14bd f07a 243d 4353 c53c
000000f0: 79ad 21be a3dd 343d 08ff 5c3c 5d6d 583e
00000100: 60b7 b5bc f0c8 2abf fa71 a83a 2d8c 07be
00000110: 649e 71be 7c11 293e 3981 8ebd 05d8 04be
00000120: 56b9 d7bd a254 923c 9830 a6be f29f 1e3e
00000130: b5b5 4b3e 82e2 cebe 4281 edbd db63 73be
00000140: 8577 54be e5e7 cb3d 53c5 02bd 48a1 ea3c
00000150: 3580 c6bc 3519 59bd 34ee f23c 89ef 4e3e
00000160: 070d 233e f120 7dbe 3dfa d43d 6013 483e
00000170: eab3 503d d12a 3abe f4c6 013d ecb3 93bc
00000180: 6384 323e 4e75 58bd 3b16 21be 31e4 bc3d
00000190: 378f e6bd 759f bbbd 2dfc 2cbd 7119 27bd
000001a0: 2153 07be ba6c 14be 12ae 633c 36f7 873e
000001b0: b751 c53e 8c75 a83e c7cb 0cbe e142 b0bd
000001c0: 1730 1d3e aee0 963c 3861 673d bf48 d73c
000001d0: 1322 1fbc 71e4 933d 8d88 af3c ea2f b5bd
000001e0: 9fb7 993c 526f e5bc 13f6 083e 1360 f63e
000001f0: 8721 0a3e c7ec e53d 91e9 1c3e bbc7 ef3c
00000200: 2860 b5bc 2c80 72be 90f4 3f3c 0a23 aa3e
00000210: d610 083b 5313 bd3d d8fb 6f3d dd7f 8a3d
00000220: ba69 4abe a086 babb 271e 3a3c 0b45 94bd
00000230: 1e2c 0abe efa2 ad3d bc3f b53e 1c6a 723e
00000240: 49c8 5ebd 90ae 8c3c 4d87 843e f50f bbbd
00000250: 9d6a 083e 02f0 c3bd 5de7 75bd 1d27 59bd
00000260: a4c7 fa3c 08af 903d 2ae6 e53c c807 f9bd
00000270: 22b3 803e 097a a1be 7d49 b83e 536b 9c3e
00000280: ad24 c0bd 7ed7 43bd f371 97be a091 88bc
00000290: e02b dbbe 368c 9fbe 4953 2ebd cffe 00be
000002a0: 9842 863d 65ff 39ba 3d52 683d f530 47be
000002b0: 029f 0c3d a31b cdbc db88 eabd 13f1 30be
000002c0: 2778 cbbc 063f 163e ff77 d3bd a6fb 4f3d
000002d0: caa4 873d f984 743d cc14 e2bd 1087 6b3c
000002e0: de0e 3fbd 8c9d cc3e da19 de3d b9b1 423e
000002f0: ec49 ecbd 9600 febd 9e61 89bc b864 9e3e
00000300: 6932 b2bd 516d 203e b081 b1bc b0a3 bc3c
00000310: 40ff 64bd c47b 9f3e 359b 313d e9cd 913d
00000320: f9be 93bd 2290 343e d912 713c d9ce 463d
00000330: e933 983c 92fc 793d 82fe 453e dbbb 6bbe
00000340: def3 0bbe 1433 99bd ba36 963e 4d38 1abe
00000350: e061 fabd 2f57 8a3e 0a0d ae3d 2df4 423d
00000360: 7616 963d b995 6b3a 06c0 393b 5649 22be
00000370: bb1b e43d 394c 72bd 68b4 6f3d f659 e43d
00000380: 3aa1 3abe 897a b7bc 8d58 c03e 4656 7a3d
00000390: 6b58 953d 68f2 93bc 6ae4 69be 8e7e 093e
000003a0: 0e82 2fbe 84d2 91bd 94f2 873e 3c2a 153d
000003b0: 9cb0 d83d 0c3a 06bd 8007 f7bd 2323 f5bd
000003c0: 7610 8a3d aa75 ab3d ecf6 d13d e6aa 103d
000003d0: 2d7a 60bd cb25 9ebe 86ee 73be 07cf 6bbd
000003e0: ca87 06be fa71 f33d 5a09 24be 4824 693d
000003f0: c7b5 82be c009 e1bd 889c 81be deb6 40bd
0.089819804 -0.0074964273 -0.06852734 -0.10113256 0.025321195 -0.006410424 -0.0674832 -0.027181445
-0.0643241 -0.20231847 0.013247698 0.14225748 0.03224313 0.20651686 -0.27828437 -0.023728177
-0.04800618 0.024543678 0.044460304 0.102450445 -0.09708612 -0.37867573 -0.024052188 0.27564123
-0.2073796 0.06846437 0.1396175 0.10428867 0.26832262 -0.0065344498 -0.04943062 0.0086537525
0.67793953 -0.11997692 0.08649676 -0.08378362 -0.030297443 -0.19638705 -0.1942942 -0.065669015
0.15954293 0.106685326 0.28835788 0.043774363 0.13061473 -0.2364433 -0.0044444157 0.047925346
-0.025636887 0.14653723 0.0035540808 -0.023965413 -0.04112778 -0.082792565 0.059679158 0.14563215
0.30028448 -0.03615995 0.040156305 0.024087554 -0.15788831 0.04415668 0.013488539 0.21135469
-0.022182167 -0.66712856 0.001285135 -0.13237067 -0.23595577 0.16510576 -0.06958241 -0.1297303
-0.10533397 0.017862622 -0.3245895 0.15490702 0.19893534 -0.40407187 -0.115969196 -0.2376856
-0.20748718 0.0995634 -0.031926464 0.028641358 -0.024231056 -0.053002555 0.0296546 0.20208563
0.15922938 -0.24719597 0.10399292 0.19538641 0.05095283 -0.18180396 0.031683877 -0.01803013
0.17433314 -0.052846245 -0.15731137 0.092232116 -0.11257785 -0.091612734 -0.04223268 -0.040795747
-0.13215305 -0.14494601 0.013896482 0.26555794 0.38538906 0.3290218 -0.1374961 -0.08606506
0.15350376 0.018417682 0.0564892 0.026279805 -0.009712714 0.07221306 0.021427417 -0.088470295
0.018764315 -0.028007183 0.1337512 0.48120174 0.13489352 0.11226802 0.15323474 0.029270044
-0.022140577 -0.23681706 0.011716023 0.33229858 0.0020761988 0.092322014 0.058589786 0.06762669
-0.19766894 -0.005692318 0.011359728 -0.072397314 -0.13493392 0.08478343 0.35400188 0.2367329
-0.054390226 0.017173082 0.25884476 -0.09133903 0.1332192 -0.09567262 -0.0600351 -0.053015817
0.030612774 0.070646346 0.028063852 -0.12159687 0.25136667 -0.31538418 0.35993567 0.30550632
-0.09381995 -0.04781293 -0.29579124 -0.016671002 -0.4280691 -0.3116166 -0.042559896 -0.12597202
0.065556705 -0.00070952467 0.056719054 -0.1945227 0.03433133 -0.025037592 -0.11451884 -0.17279463
-0.024837567 0.14672479 -0.10325622 0.0507771 0.06623228 0.059697125 -0.11039123 0.014375463
-0.046645038 0.3996395 0.108447745 0.19013108 -0.11537537 -0.124024555 -0.01677018 0.30936217
-0.08701021 0.15666701 -0.021668285 0.023027271 -0.055907488 0.31149113 0.043360908 0.07119352
-0.072141595 0.17633107 0.014713966 0.04853711 0.01857944 0.061031885 0.19335368 -0.2302088
-0.13667247 -0.074804455 0.29338628 -0.1506054 -0.122256994 0.2701964 0.08498581 0.047596145
0.07328503 0.0008986849 0.0028343215 -0.15848288 0.11138102 -0.059154723 0.05852166 0.11149971
-0.18225566 -0.022397297 0.3756756 0.061117433 0.07292255 -0.018059924 -0.2284104 0.13427183
-0.17139456 -0.07120231 0.2655226 0.03641723 0.105805606 -0.0327702 -0.120619774 -0.119695924
0.06741421 0.08372052 0.10252175 0.03531923 -0.054804016 -0.3088821 -0.23821458 -0.057570484
-0.13137737 0.11886974 -0.16019192 0.056919366 -0.2552931 -0.10988188 -0.25314736 -0.047049396

fc1.bias f4 [256]
00000000: 23a0 6ebc d1b6 ab3e be46 b13d 81a5 54bd
00000010: 1fce 98be d79d d6bd fa44 e3bd 3468 893d
00000020: df52 503e ea21 923e 6241 57be b103 a63d
00000030: 3bd5 b83e 7dd1 293e 409b 6abd 41d3 9f3d
00000040: 7428 04bf 00f7 05be 2fe9 4abe bb6a 3fbd
00000050: 0a34 4abe ca2a 06be 1987 1e3d 9284 7d3d
00000060: b953 c93e 36d4 6c3e cdff 0dbe a0dd 5c3c
00000070: e836 a83e 6b1f a8be db99 623d 4deb 70be
00000080: a598 e2be 4435 1bbe 6f1e b53e 53f7 1a3e
00000090: fc70 803d e1de bb3e 94e5 3fbe ec95 d73d
000000a0: dcbc a6bd ac74 02be cd34 f93d 39f2 a5bd
000000b0: 7599 0fbe 9183 efbd f9f2 68bd f50d f239
000000c0: 74cd 1a3d 1cee 513e 07c3 afbe 801e 53bd
000000d0: fdbd 3cbe 4c38 16be a45e c8bd 115c 453e
000000e0: 0f4c cfbe 3e3f b63e a3f4 48bd 890a 0fbe
000000f0: 3acc babe a659 503e a5a8 153e 0aaa 06be
00000100: f97f 58be a2bc cb3d 3a19 aebe 435f ff3d
00000110: ee15 d5be 82ad 973e 5633 273e 66e4 96bd
00000120: e0c4 32be 654d 8f3c 64e0 803c 24e4 543e
00000130: e968 96bd 8336 db3d 085a 0b3e 57f3 61be
00000140: 7ca9 7e3e 4d65 c53d d31f 7f3c 905b c33d
00000150: 26b9 d03e d61d 10be 1c73 713e 15d4 173e
00000160: bdb0 2e3d cb2a 95be 4a89 433e 4428 8b3d
00000170: 6978 613c 6e55 eabe d9d2 9bbe e1d6 f03d
00000180: cf4c 0e3e 87cb b2bd 3810 e53d a17d 303d
00000190: 38f8 2bbe 9642 ddbd e188 f83d 6b88 cdbd
000001a0: aea3 e0bc 0e3f 763e 51de a83b 9a40 e53d
000001b0: c437 863e d374 adbe 91ac 9a3e dd01 a73e
000001c0: a370 66bd 1e12 eebd d180 693d 7956 8ebd
000001d0: 23c2 c6bd dbb0 cfbd 9616 6b3e cde1 bdbd
000001e0: 2796 063e fa80 bb3e a88a 063e ba90 323e
000001f0: f99c c8be 9f9b 2e3e f687 80be 793c 993d
00000200: 64c9 213e a97e bd3e 62b1 b53d 4ff1 bfbe
00000210: bca4 8c3e 3f96 283e 8df9 7ebc f4db 71bd
00000220: 98e1 9fbd c2ba b6bb 7be8 c53d 20d8 6dbe
00000230: 83a3 813e 5123 09bf ff97 07bd ac88 babe
00000240: feab 473e a2d0 113e 460f 5ebd 4c63 3cbd
00000250: 505a 283e a879 103e e973 c3bd 89d2 803d
00000260: 6272 183e 03be 9f3d 1907 593e 2cc8 633e
00000270: 7690 7d3e bcc4 4c3d 515a 863e 2cc9 a9be
00000280: 041c 77bd 3597 94be 7a09 cabe 366c aaba
00000290: 8d1b 6e3e 73e3 6e3e 4ce0 2e3e f4bb 5abe
000002a0: 6626 97be da11 003d b4d7 063e e87f 5c3e
000002b0: 0ebc c23c f292 543e 29bb e7bd 7df9 083e
000002c0: 03ed 383e 439f 5fbe 19bb 073e 4919 a13d
000002d0: f377 d93d ec35 f6bc ac91 22be d453 00bd
000002e0: 6a93 99bd dd27 183e 7891 15be 9de3 953c
000002f0: 6524 233e c05c 923e 1575 173b 6bef 243e
00000300: ce9d c13b 50fd 873e a906 203e 3245 023c
00000310: 9d94 86be 74a1 b8bd 171a acbd 6858 8ebe
00000320: 0fcd 22bd 2d56 85be 85d5 4b3e 9f13 a1bd
00000330: ed26 473e 8cf0 56be 9e15 213e 237e 87be
00000340: f8e8 cabd 0b61 98bd e4aa 883e 73a8 323e
00000350: 4a3b a23e a600 c23d 9dc8 35bd a89c 6a3d
00000360: 4b7a 843e f0ef 98be c0f3 9e3e 58bc 6b3e
00000370: 1daf 9d3d 51bb 1cbe bf60 19bf 98f2 463d
00000380: a5c5 5fbe 1e68 1ebe 9bd3 ae3c 7b59 8d3e
00000390: b284 af3c a167 4c3e e3fd b73d 11e1 393e
000003a0: 317e 0abd f21e 1c3a 1176 263e 07ca f6bd
000003b0: dbe2 d8bd e3cd 3e3c 230f b1bd a009 0cbd
000003c0: b985 293e 25bb dabd b747 2e3e c73e 8fbc
000003d0: 8ee8 843e 7f5d c7be 4e6b 5e3e e572 1b3e
000003e0: 116f 003d 73bb ccbd ee10 543e 5df3 dabe
000003f0: 059c 13bd 854b 0bbe 8248 4abe 6ea9 c43d
-0.014564547 0.33537915 0.08656071 -0.05191565 -0.29844758 -0.10479324 -0.110971406 0.06709328
0.20344113 0.285415 -0.21021035 0.08106173 0.36100182 0.1658382 -0.057276964 0.07803965
-0.51624227 -0.13082504 -0.19815515 -0.046732645 -0.19746414 -0.1310226 0.038703058 0.061894007
0.39321688 0.23127827 -0.13867112 0.013480574 0.3285439 -0.3283647 0.05532251 -0.2352726
-0.44257084 -0.15157038 0.3537478 0.15133409 0.0627155 0.3669348 -0.18739921 0.10526642
-0.08141491 -0.1273982 0.12168274 -0.08102841 -0.14023383 -0.11695016 -0.05687234 0.00046168236
0.03779359 0.20500988 -0.34328482 -0.05154276 -0.1843185 -0.14669913 -0.09783676 0.19273402
-0.40487716 0.35595125 -0.04906143 -0.13968863 -0.36483938 0.20346698 0.14615114 -0.13150802
-0.21142568 0.09948088 -0.3400362 0.124693416 -0.41618294 0.29624563 0.16328177 -0.07367782
-0.17457914 0.01749296 0.015731998 0.20790154 -0.07344229 0.10703757 0.13608563 -0.22065483
0.2486934 0.09638462 0.015571552 0.095389485 0.40766257 -0.14073882 0.23579067 0.14826997
0.04264902 -0.2913421 0.1909534 0.067947894 0.013761618 -0.45768303 -0.30434301 0.11759735
0.13896488 -0.08730226 0.11184734 0.04308856 -0.16793907 -0.10803716 0.121354826 -0.10035785
-0.027421799 0.24047491 0.0051534553 0.111939624 0.2621442 -0.33878192 0.30209783 0.3261861
-0.056259762 -0.11624549 0.057007615 -0.06950087 -0.097049974 -0.101411544 0.22957835 -0.09271584
0.13143216 0.3662184 0.1313883 0.17438021 -0.3918226 0.17051552 -0.2510373 0.07482237
0.1579948 0.37010697 0.08871724 -0.3748879 0.27469432 0.16463564 -0.015562427 -0.059047654
-0.078067005 -0.0055764625 0.09663483 -0.23226976 0.25320062 -0.53569514 -0.03310394 -0.36432397
0.19499204 0.14239743 -0.054213785 -0.045993134 0.16440701 0.14108908 -0.095435925 0.062901564
0.14887384 0.07799914 0.21194114 0.22244328 0.24762139 0.049992308 0.2624078 -0.33161294
-0.060329452 -0.29021612 -0.39460355 -0.001300222 0.23252697 0.23328952 0.1707775 -0.21360761
-0.29521483 0.031267025 0.13168222 0.21533167 0.023771312 0.2075918 -0.11314995 0.13376422
0.18059163 -0.21838097 0.13254966 0.07866151 0.106185816 -0.030055009 -0.15875882 -0.031329945
-0.0749882 0.14858957 -0.14606273 0.018297011 0.15931852 0.28586388 0.0023110558 0.16106956
0.0059087044 0.2656045 0.1562754 0.007951068 -0.26285258 -0.0901517 -0.08403414 -0.27801824
-0.03974634 -0.2604231 0.1990567 -0.078650706 0.19448443 -0.20990199 0.15730903 -0.26463422
-0.099077165 -0.074403845 0.2669288 0.17447071 0.3168586 0.0947278 -0.044380773 0.057278305
0.25874552 -0.29870558 0.31045341 0.23021066 0.07699416 -0.1530583 -0.5991325 0.0485712
-0.21852739 -0.15469405 0.021341136 0.2760733 0.021425579 0.19961406 0.08983972 0.18152262
-0.03381175 0.0005955539 0.16255976 -0.120502524 -0.10590144 0.011645767 -0.08645465 -0.034188867
0.16554917 -0.10680226 0.17019545 -0.01748599 0.25958675 -0.3893852 0.21720621 0.15180548
0.03135592 -0.099966906 0.20709583 -0.42763796 -0.036037464 -0.13603027 -0.19754222 0.09602629

fc2.weight f4 [4, 256]
00000000: 2b68 04bd e3ca 16bd 71a6 573e bf48 56bd
00000010: fcf7 a4be a021 bd3e 133d 43be ae4f 33be
00000020: 8863 2dbe 3257 013d 43ea 0a3f b84d 2b3e
00000030: d7ee b6bd 59d2 2e3f ee57 a1be 31f4 33be
00000040: 8b0b 1c3e 9d69 e13e 84c3 023f 1795 713e
00000050: 5c8f 953d 7d66 b13e bd21 b03e 1779 90bd
00000060: 243d 17be ad04 2cbe 9a14 d93d b95e 3abe
00000070: d0a7 563e f9dd c73e 4e30 c7bb e996 c83e
00000080: 5cf9 063f 22ea 423e c615 3fbe 20c0 e5be
00000090: 32ea 013b abc4 6ebe f026 babe a3db 03be
000000a0: 1c09 0f3e 6e97 44be 0dad 8e3e 7b69 debe
000000b0: a89c 48bd 0d6b 27be ef07 4dbd ee8b b53d
000000c0: 1860 0e3e 68d2 a83e 78ef 7a3e bc1b 213f
000000d0: 319b 193e 1481 f9be 4740 d1be a53e a43e
000000e0: 2b25 2b3f a82b 34be 0385 1a3f 15b4 2e3e
000000f0: 96c8 473e a1e3 4ebe b03e 4f3e 625e d1bc
00000100: 108c c6be 7632 85bd 4880 bb3e cce0 6f3e
00000110: fe15 d13e b720 773d 825f 3abe 3eee 6abe
00000120: 9c13 823e 6d31 68bd e6b0 f3bd 6643 e3bd
00000130: 77c1 48be cffc 75bd a31a a73d 0824 0bbc
00000140: 2e6d 32be 20ba dabc f982 62be 17fb a5be
00000150: c60a 5fbe 5dd0 533e 5f78 9e3d b38c fdbd
00000160: 75e0 fc3d bc3e a03e 953f 643d 6a63 9abe
00000170: e322 d63e 1bf8 243f 4fd3 d23d f45e c7bb
00000180: f840 233e 9e8c 6fbe c7d9 6cbe 4035 2fbe
00000190: d098 56bd b209 b7bd 6fa0 58be 9fde 73be
000001a0: 1e0d 613e ad5f a6be 1ba2 a7be 82d9 2bbe
000001b0: 85de 74be 01c8 08bf 197e f1bd 3129 84bd
000001c0: 73d4 8c3d 0478 e43d 6978 4c3e 95a8 b63e
000001d0: 39a2 0a3f 6c80 68be 87fb 85be 6a1c 12bf
000001e0: 9cf3 d5bd 7d28 573d d859 76bd 89cd 23bd
000001f0: 0aa7 563f c55d 263e 6214 8f3e fda8 f63d
00000200: a35f 86bb 3933 fcbe 13fc 24be 3a34 643e
00000210: dc1f 953c ccd4 883c 0581 c9be 4b06 ee3e
00000220: c5ca d83e 6f4f dc3e 969b bfbe bef9 e7bc
00000230: 4947 b13d cc19 66be 8d44 5cbe c1e7 50bd
00000240: 62c0 253d 81ef 6bbe e6b1 19bd 79e1 0cbc
00000250: e99d b5be 2ea7 1e3f 25c8 bfbd 7e27 cd3e
00000260: c555 9fbe c405 81bd 61d4 ccbd a0b2 85be
00000270: 7d37 4b3d 4751 c8be 00d8 ad3c 4d25 5fbf
00000280: 0585 03bf 7652 0d3f d283 98be cd5a 913e
00000290: db67 92bd f17b bc3e a610 2d3d 202e 18bf
000002a0: 792f 78be 6154 853e 6319 323e 080e 18bd
000002b0: 2666 473e 3584 adbd 6c04 2ebe 0037 6e3e
000002c0: aa3c b83d 0ac7 af3d 1ffb 21bd c0a5 81be
000002d0: 7750 8e3e 0976 323f fcbb 2f3f bb8d 883e
000002e0: 57f8 f3be ffaa 003f f642 27be 858c cf3d
000002f0: 8370 a9be 8dc0 fabd 7e0e cbbc 45ec 923e
00000300: 28e1 2e3e a7aa b6be 9f51 7d3e ea7f a7be
00000310: 32cd 3c3f 964a a1be 1fe9 c43e 605a 91be
00000320: 22e8 863d f469 653e 787a 56bb dc28 4dbd
00000330: a06d c2bc 1636 443d 5cde 09be 5d1c cabc
00000340: bcd6 6a3e eb5a c63c 2bef 6e3d ba4a 113e
00000350: f550 e3bd 4bea a0be 6925 36bd d8f2 70be
00000360: 9788 ecbe 2980 a0bf 8685 28be 8cf6 47bf
00000370: 164e e2bc 50e4 31bd 1252 04bf 0815 52bd
00000380: 68ac e3bd 81d1 143f 6fc7 b8bd d1c3 40be
00000390: 9d2e 363b ec0d 6d3e dfc7 e3bb 2781 f3bd
000003a0: 1901 fa3e a5e3 3abe 3442 b1bd e40c f03d
000003b0: 5c2b e53e 4ec6 20bd 8dcf 763e bd2b 94bc
000003c0: 55a3 8a3e e15f f83e efff 6dbe 54cb ee3d
000003d0: 7dce 153f 2cf9 01be 10de 22bd 0e41 15bf
000003e0: 6e72 7bbe d077 133d 194b dbbe 7ac1 023f
000003f0: cb81 0abf ea9c 003f 259f 8b3e 5f3b 5ebd
-0.032325905 -0.03681458 0.21059586 -0.05231547 -0.32220447 0.36939716 -0.19066267 -0.17510864
-0.169325 0.031577297 0.54263705 0.16728866 -0.08932274 0.68289715 -0.31512398 -0.1757362
0.15238778 0.4402589 0.51079583 0.2359203 0.07302734 0.34648505 0.3440074 -0.07054346
-0.14769417 -0.16798659 0.105996326 -0.18200196 0.20962453 0.3903654 -0.0060787564 0.39177635
0.5272424 0.19034627 -0.1866065 -0.44873142 0.001982343 -0.2331721 -0.36357832 -0.12876754
0.13968319 -0.19198391 0.27866402 -0.4343985 -0.048977524 -0.1634943 -0.050056394 0.0886458
0.13903844 0.32973027 0.24505413 0.62932944 0.15000607 -0.4873129 -0.40869352 0.32079044
0.6685359 -0.17594779 0.6035921 0.17060883 0.19510111 -0.20204021 0.20238757 -0.0255577
-0.38778734 -0.06503765 0.36621308 0.23425597 0.4083709 0.060333934 -0.18200496 -0.22942445
0.25405586 -0.05668776 -0.11898975 -0.110968396 -0.19605051 -0.06005555 0.081593774 -0.008492477
-0.17424461 -0.02670008 -0.22120275 -0.3241813 -0.21781453 0.20684953 0.07737803 -0.12380352
0.12347499 0.31297863 0.0557247 -0.30153972 0.4182349 0.6444108 0.1029421 -0.0060843173
0.15942752 -0.23393485 -0.2312995 -0.17110157 -0.052391827 -0.08937396 -0.2115495 -0.23815392
0.2197766 -0.3249487 -0.32740864 -0.16782191 -0.2391301 -0.5343018 -0.11791629 -0.06453169
0.06876459 0.11155704 0.19967808 0.35675493 0.5415378 -0.22705239 -0.26168463 -0.57074606
-0.104468554 0.052528847 -0.060144275 -0.039990935 0.8384863 0.16246708 0.27945238 0.12043951
-0.0041007563 -0.4925783 -0.16111784 0.22285548 0.018203668 0.016703032 -0.39356247 0.46489176
0.423422 0.43029353 -0.3742339 -0.028317329 0.08656175 -0.22470778 -0.21510525 -0.051002268
0.040466674 -0.23040582 -0.037523173 -0.008598679 -0.35472038 0.61973846 -0.093643464 0.40069193
-0.31120124 -0.06299928 -0.100014456 -0.26112843 0.049613465 -0.3912451 0.02122116 -0.8716629
-0.51374847 0.5520395 -0.2978807 0.28389588 -0.07148715 0.3681331 0.042252205 -0.5944538
-0.2423686 0.26040938 0.17392497 -0.037122756 0.1947256 -0.08472482 -0.16993874 0.23263168
0.08995946 0.085828856 -0.03954613 -0.2532177 0.27795765 0.6971136 0.68646216 0.26670632
-0.47650406 0.5026092 -0.16334137 0.10134224 -0.33093652 -0.122437574 -0.024787184 0.28695884
0.17078078 -0.35677072 0.24738167 -0.32714778 0.73750603 -0.31502217 0.38459107 -0.28389263
0.065872446 0.22403699 -0.0032726806 -0.050087795 -0.023733914 0.047903143 -0.1346373 -0.024671728
0.22933477 0.024213275 0.058333557 0.14188662 -0.11099426 -0.3142875 -0.04446927 -0.23530138
-0.4619796 -1.2539111 -0.16457185 -0.78110576 -0.027625125 -0.043430626 -0.5168773 -0.05128959
-0.11116868 0.5813218 -0.09022414 -0.18824698 0.002779878 0.23149842 -0.0069513167 -0.11889868
0.48828962 -0.18250902 -0.08655205 0.11721209 0.44759643 -0.039251618 0.24102612 -0.018087262
0.27077737 0.4851065 -0.23242162 0.116598755 0.585182 -0.12692708 -0.039762557 -0.5830239
-0.2455537 0.036002934 -0.42830732 0.5107647 -0.541043 0.5023943 0.27269855 -0.05425584

fc2.bias f4 [4]
00000000: 6258 9cbd 3693 813c dead 8a3d edec e5bc
-0.07634045 0.015817266 0.06771444 -0.028067077
