critic_solved.pth (torch_old, 435476 bytes, 7 tensors)

fcs1.weight f4 [256, 33]
0.017143907 -0.077987 0.021500787 0.03151596 -0.08780715 -0.041577164 0.025497064 0.06649167
0.04569652 -0.11106773 -0.01721016 -0.03178911 -0.05409246 -0.06334201 0.013386738 0.0015263641
0.006354299 0.009044735 -0.017909324 0.019863794 0.010469775 -0.018132932 0.030721437 -0.00649017
0.021848898 -0.025442574 0.07660941 0.059077535 -0.049401943 0.043883614 -0.044252362 -0.058963582
0.2697524 0.065449916 0.0015956513 0.046086945 -0.020763243 -0.049747273 0.0461735 -0.040800262
0.010684756 -0.08471804 0.006874727 0.07136921 0.022663265 0.05482828 0.020166371 -0.025399938
0.025468461 0.009867219 0.0099092405 -0.010431871 0.009402608 0.051785283 0.009303605 0.015498717
0.018729527 0.010053368 0.0030271276 -0.035854835 -0.02759856 0.052348282 0.044394203 -0.00017736899
-0.03742118 -0.44647473 0.02720397 0.0034620264 -0.12765726 0.023397988 -0.0017539264 0.0073103434
0.10995191 -0.011974345 0.0787921 -0.0055580763 0.019582435 -0.016198516 -0.05748423 0.071194984
-0.043701984 -0.0022254242 0.040426303 0.021844411 0.003642746 -0.03782839 -0.003749638 0.008293005
0.0004556274 0.012712945 0.02498805 -0.01360063 0.07021429 0.022468017 0.008407118 0.03345283
-0.0843287 0.061294757 0.31935266 -0.047921333 0.04274294 -0.10038673 -0.023629028 0.004568084
-0.0027902569 -0.07558421 0.016668191 0.08075755 0.006004302 0.07619137 0.03255473 -0.0060564494
-0.022422398 -0.014749351 -0.012400604 0.004802371 -0.01101885 -0.004527096 0.000969039 0.04083545
0.010358 0.05649853 0.0007099981 0.0042844797 0.027129756 0.04170497 0.0025033136 0.08002908
0.060554832 0.010802081 0.030417792 0.31122488 -0.12172311 0.13828065 -0.029149143 -0.031173583
0.0011693996 -0.002426054 -0.0012441991 -0.07975047 0.017954778 -0.09767884 -0.04862844 0.08513625
-0.11821824 -0.030334169 -0.0175477 -0.007549274 -0.02086028 0.032618746 -0.012932557 -0.0045923293
0.04763768 -0.034753706 0.058332067 -0.003846575 0.009720247 0.03020458 0.07738524 0.00037116933
-0.038473714 -0.016867556 -0.06410665 -0.027067833 -0.20019145 0.00838151 -0.004212834 0.08241604
0.042215303 0.09615089 0.061120007 0.0014475806 -0.047533706 0.06797725 0.20917758 -0.04220893
0.007341853 -0.09271833 -0.09257786 0.106891364 -0.13192593 -0.020501994 0.012418608 -0.026494205
0.012568161 -0.0136985695 0.024910718 0.0061195823 -0.06866197 0.007223611 -0.09677251 -0.03956855
0.034606025 -0.09538236 -0.021957032 -0.011652967 0.057142064 -0.14340125 -0.111108124 -0.01756012
-0.041075762 -0.010019848 0.030879328 -0.027969543 0.0023911444 0.016024662 0.02936419 0.002501681
-0.0707283 0.045827966 0.15883741 0.0024031785 0.16608888 0.047506247 -0.014805169 -0.02841896
0.045760762 0.05043751 -0.01447355 -0.015259146 0.030585634 -0.0624017 0.09164844 0.0037383642
-0.03632661 0.011892965 -0.030036738 0.018729322 0.019587733 0.021567829 -0.02632129 -0.046900906
0.027020628 -0.07194252 0.054606877 0.0010001832 0.1449103 0.05529728 0.005839609 -0.012320875
-0.09185097 -0.08251534 -0.068276316 0.018468611 -0.04057624 -0.07007551 0.07691609 0.017866332
-0.020330807 0.043498315 0.013373572 -0.034128413 -0.052846227 -0.028038159 0.051625397 0.02872394
00000000: 6171 8c3c a6b7 9fbd 6b22 b03c e116 013d
00000010: 3cd4 b3bd d14c 2abd 38df d03c c92c 883d
00000020: 462c 3b3d 7a77 e3bd 52fc 8cbc 4c35 02bd
00000030: 0e90 5dbd 75b9 81bd 0c54 5b3c 4810 c83a
00000040: b937 d03b 5e30 143c 93b6 92bc 65b9 a23c
00000050: 6b89 2b3c 848b 94bc 86ab fb3c 7eab d4bb
00000060: 76fc b23c f26c d0bc 65e5 9c3d 49fb 713d
00000070: b159 4abd 4ebf 333d f741 35bd cc83 71bd
00000080: fd1c 8a3e 9b0a 863d 2c25 d13a aac5 3c3d
00000090: ad17 aabc ccc3 4bbd 6d20 3d3d 2d1e 27bd
000000a0: 1d0f 2f3c a780 adbd 6445 e13b 052a 923d
000000b0: 50a8 b93c 9e93 603d f233 a53c 8813 d0bc
000000c0: 3ca3 d03c 1eaa 213c 5e5a 223c 70ea 2abc
000000d0: 650d 1a3c ce1c 543d 266e 183c 55ee 7d3c
000000e0: aa6e 993c e2b6 243c c662 463b 85dc 12bd
000000f0: 6016 e2bc 276b 563d b2d6 353d 20fc 39b9
00000100: f446 19bd 5698 e4be dcda de3c 2ae3 623b
00000110: 96b8 02be 23ad bf3c 01e4 e5ba 9b8b ef3b
00000120: 782e e13d 0b30 44bc c15d a13d 8620 b6bb
00000130: 586b a03c c0b2 84bc 9574 6bbd adce 913d
00000140: da00 33bd 6cd8 11bb 0d96 253d 0df3 b23c
00000150: 23bb 6e3b f1f1 1abd 7dbc 75bb 62df 073c
00000160: 46e1 ee39 f549 503c bdb3 cc3c 2dd5 5ebc
00000170: 82cc 8f3d d90e b83c 02be 093c d605 093d
00000180: 87b4 acbd 3610 7b3d 3182 a33e 2949 44bd
00000190: 3913 2f3d 8f97 cdbd aa91 c1bc deaf 953b
000001a0: bedc 36bb e5cb 9abd bb8b 883c 3764 a53d
000001b0: bcbf c43b 390a 9c3d 1c58 053d 2e75 c6bb
000001c0: 2daf b7bc 43a7 71bc e72b 4bbc 355d 9d3b
000001d0: 6888 34bc 0958 94bb 1b07 7e3a 1343 273d
000001e0: 9ab4 293c 016b 673d 2a1f 3a3a d264 8c3b
000001f0: 393f de3c d5d2 2a3d a20e 243b 49e6 a33d
00000200: 5808 783d 36fb 303c bc2e f93c de58 9f3e
00000210: f749 f9bd 7199 0d3e 2fca eebc be5f ffbc
00000220: 8a46 993a 6ffe 1ebb 6514 a3ba 3754 a3bd
00000230: e615 933c d80b c8bd 9d2e 47bd ea5b ae3d
00000240: 681c f2bd 5d7f f8bc 32c0 8fbc e65f f7bb
00000250: 2ee3 aabc 3c9b 053d 13e3 53bc 407b 96bb
00000260: ba1f 433d e759 0ebd 9bed 6e3d d216 7cbb
00000270: ac41 1f3c 986f f73c 277c 9e3d 8199 c239
00000280: 9d96 1dbd d42d 8abc 594a 83bd 5cbd ddbc
00000290: fdfe 4cbe 9a52 093c d00b 8abb bec9 a83d
000002a0: f4e9 2c3d c2ea c43d f958 7a3d bfbc bd3a
000002b0: b4b2 42bd a837 8b3d a632 563e 45e3 2cbd
000002c0: ed93 f03b 1ce3 bdbd 7699 bdbd dce9 da3d
000002d0: 9717 07be ccf3 a7bc 6b77 4b3c 600a d9bc
000002e0: b0ea 4d3c f76f 60bc 9011 cc3c c786 c83b
000002f0: a69e 8cbd 0bb4 ec3b aa30 c6bd a212 22bd
00000300: 0cbf 0d3d d457 c3bd 3cdf b3bc 16ec 3ebc
00000310: cc0d 6a3d c7d7 12be a88c e3bd 3eda 8fbc
00000320: 0f3f 28bd 4a2a 24bc a5f6 fc3c 6220 e5bc
00000330: bfb4 1c3b 2746 833c 2b8d f03c 3ef3 233b
00000340: 00da 90bd 1bb6 3b3d 46a6 223e a57e 1d3b
00000350: 3413 2a3e e995 423d 6191 72bc e1ce e8bc
00000360: a36f 3b3d 9097 4e3d 7822 6dbc 7f01 7abc
00000370: b98e fa3c ed98 7fbd 2db2 bb3d 58ff 743b
00000380: 36cb 14bd b6da 423c 9b0f f6bc 3c6e 993c
00000390: 7476 a03c 04af b03c bf9f d7bc 2a1b 40bd
000003a0: 5d5a dd3c 9a56 93bd 76ab 5f3d 9418 833a
000003b0: 5e63 143e 677f 623d 315a bf3b 7fdd 49bc
000003c0: 5d1c bcbd cdfd a8bd 74d4 8bbd 7c4b 973c
000003d0: 4533 26bd c083 8fbd 2f86 9d3d 6a5c 923c
000003e0: cb8c a6bc 4a2b 323d d41c 5b3c 3cca 0bbd
000003f0: 4975 58bd 48b0 e5bc 2775 533d 784e eb3c

fcs1.bias f4 [256]
0.03630235 0.1780242 -0.099947535 0.17475721 -0.03303471 -0.15252258 -0.115218565 -0.10289567
-0.052184455 0.11719994 -0.08391366 -0.09619926 0.115739234 -0.05631323 0.08408219 -0.025237104
-0.050002377 -0.12753133 0.14168648 -0.10746831 -0.006012689 0.044925824 0.08093684 -0.005210728
0.013957265 -0.09614197 0.09271254 -0.059313916 0.064759254 0.084906854 0.06021845 -0.10426763
-0.09228652 -0.15856431 -0.03257821 0.011636126 0.1477265 0.15984239 -0.08587802 0.10950435
-0.16064422 -0.05057871 0.12059859 -0.11634669 -0.11676409 -0.04614869 0.06604878 0.110078104
0.17431997 -0.050778884 -0.083488345 0.073300324 -0.1065289 -0.045069937 -0.060829956 0.14207299
-0.048228692 0.034141526 0.013766585 -0.06544865 -0.09904259 0.12966071 -0.15750171 -0.039054547
-0.13431959 -0.10178002 0.07285619 0.10845824 0.12563027 0.02903023 0.09642921 0.067116
-0.061584607 -0.06873487 0.059834287 0.12846364 0.11743966 -2.548783e-05 0.16869497 -0.08143625
0.042157315 0.10095807 0.016113687 0.070937365 0.13741997 -0.13976544 0.11064235 0.08667573
0.08771568 0.06996089 0.088440515 0.0845977 0.106448 -0.088303626 -0.17573804 0.113259844
0.17603001 -0.054590624 0.11938116 -0.012140576 0.105002604 -0.06471425 0.06246468 -0.10221967
-0.13288952 -0.0017987926 -0.061466407 0.13791995 0.053689685 -0.08183251 0.07543495 0.15172158
-0.16720015 0.11346411 -0.0035395299 -0.13238029 -0.009683731 -0.1614473 0.025366982 -0.10876038
0.14690353 0.16129994 0.084272034 0.06597686 -0.06543853 0.077625446 0.06429338 0.06921853
-0.04184362 0.14014827 -0.08348513 -0.143544 0.002224317 0.14011979 -0.04638738 -0.042166244
-0.14439848 0.129235 -0.17312036 -0.064693384 0.106028855 -0.071448766 -0.077670045 -0.10060285
0.0136473635 -0.06295369 -0.046461992 -0.056423012 0.06568996 0.12259787 0.011947113 -0.045484204
-0.0046827854 0.06773504 0.118268706 0.05120032 0.03533752 -0.06510459 -0.044454936 -0.15290795
0.06318362 -0.14250122 -0.0060660215 -0.1984626 -0.039404154 0.09225531 0.097025305 0.033729464
-0.012307277 0.14315537 0.012806674 0.17024003 0.17425798 0.114724934 0.036790658 0.09475085
0.16875336 -0.0020631156 0.17073 -0.07763046 0.008499186 -0.00377092 -0.09772467 -0.060387358
-0.033916134 -0.034022298 0.021277148 -0.0014859966 0.012271518 0.19233546 -0.114472926 0.08928399
0.040673677 0.11964473 0.16466442 -0.019976472 -0.09320145 -0.05261325 -0.02616673 -0.12885892
-0.032229234 0.06760663 0.053694747 -0.069130294 0.06774296 -0.024497252 -0.024878915 0.10311303
-0.07761048 -0.0006563943 0.15772897 0.054048594 0.07994969 -0.056778233 0.034291342 0.116158955
0.045201954 0.07804325 0.13590896 0.113596685 0.06358188 -0.20916946 -0.1296485 -0.1674519
0.17369485 -0.14670728 -0.13074459 0.02502589 -0.023923675 0.06338192 -0.03755256 0.07494929
-0.1573148 -0.17920713 0.19750479 -0.061952733 0.014779864 0.0903782 0.0013478459 -0.09549486
0.07309224 -0.08213811 0.1825195 0.008131132 0.11609514 0.12267394 0.054155875 0.075844854
0.1242932 -0.14452618 0.04598985 -0.104393035 0.13404635 0.008391915 0.05985793 0.11331382
00000000: c6b1 143d fa4b 363e 4bb1 ccbd 8ef3 323e
00000010: 674f 07bd e12e 1cbe b6f7 ebbd f7ba d2bd
00000020: 5ebf 55bd 8606 f03d edda abbd 1e04 c5bd
00000030: b108 ed3d b4a8 66bd 4933 ac3d 0bbe cebc
00000040: 4bcf 4cbd 9397 02be 4316 113e 5818 dcbd
00000050: 1706 c5bb 2404 383d 37c2 a53d c1be aabb
00000060: 03ad 643c 15e6 c4bd 12e0 bd3d 26f3 72bd
00000070: 80a0 843d a5e3 ad3d 9fa7 763d 448a d5bd
00000080: b700 bdbd af5e 22be bb70 05bd 73a5 3e3c
00000090: 9e45 173e b9ad 233e d1e0 afbd d143 e03d
000000a0: eb7f 24be 9f2b 4fbd 65fc f63d 2c47 eebd
000000b0: 0322 efbd 6906 3dbd 9544 873d a170 e13d
000000c0: ef80 323e 85fd 4fbd f0fb aabd 7b1e 963d
000000d0: d32b dabd 419b 38bd d528 79bd 957b 113e
000000e0: 738b 45bd fcd7 0b3d 3e8d 613c f109 86bd
000000f0: d7d6 cabd c7c5 043e 2148 21be a9f7 1fbd
00000100: 138b 09be 0b72 d0bd a035 953d 5b1f de3d
00000110: 39a5 003e ced0 ed3c ad7c c53d 1d74 893d
00000120: 2440 7cbd dec4 8cbd cc14 753d f98b 033e
00000130: 3484 f03d b3ce d5b7 60be 2c3e 0cc8 a6bd
00000140: 26ad 2c3d 1bc3 ce3d da00 843c 9c47 913d
00000150: d2b7 0c3e ac1e 0fbe 7598 e23d 0c83 b13d
00000160: 47a4 b33d a847 8f3d 4d20 b53d 8f41 ad3d
00000170: 6901 da3d 88d8 b4bd acf4 33be c7f4 e73d
00000180: 3641 343e 6b9a 5fbd 1c7e f43d 44e9 46bc
00000190: 9b0b d73d e888 84bd f7da 7f3d 8c58 d1bd
000001a0: 3114 08be 77c5 ebba 33c4 7bbd e33a 0d3e
000001b0: b7e9 5b3d ce97 a7bd a47d 9a3d e75c 1b3e
000001c0: 8436 2bbe df5f e83d 75f7 67bb b38e 07be
000001d0: 83a8 1ebc 7152 25be 6bce cf3c c3bd debd
000001e0: e16d 163e d02b 253e d196 ac3d e01e 873d
000001f0: a304 86bd 17fa 9e3d 3fac 833d 72c2 8d3d
00000200: 3764 2bbd 0783 0f3e 40fa aabd 33fd 12be
00000210: d9c5 113b 907b 0f3e b200 3ebd 83b6 2cbd
00000220: 32dd 13be 2e56 043e 7746 31be f77d 84bd
00000230: a825 d93d bb53 92bd 7911 9fbd de08 cebd
00000240: 3199 5f3c dded 80bd ee4e 3ebd d11b 67bd
00000250: 7588 863d 9814 fb3d d3bd 433c a54d 3abd
00000260: 0d72 99bb abb8 8a3d dd36 f23d 6db7 513d
00000270: 13be 103d 8e55 85bd 6116 36bd e793 1cbe
00000280: 6a66 813d d7eb 11be 7ac5 c6bb c839 4bbe
00000290: 4066 21bd 5af0 bc3d 34b5 c63d e827 0a3d
000002a0: 76a4 49bc 5297 123e 16d3 513c 6753 2e3e
000002b0: af70 323e e8f4 ea3d cdb1 163d bc0c c23d
000002c0: aecd 2c3e 5635 07bb d8d3 2e3e b8fc 9ebd
000002d0: 2b40 0b3c 8a21 77bb df23 c8bd bc58 77bd
000002e0: a5eb 0abd f75a 0bbd 6a4d ae3c c6c5 c2ba
000002f0: 7a0e 493c 96f3 443e c870 eabd 86da b63d
00000300: 7199 263d 4c08 f53d ca9d 283e b3a5 a3bc
00000310: 67e0 bebd fe80 57bd 9c5b d6bc 98f3 03be
00000320: cd02 04bd 5875 8a3d 06ef 5b3d 2f94 8dbd
00000330: d2bc 8a3d 76ae c8bc dece cbbc ed2c d33d
00000340: 3ef2 9ebd e011 2cba b483 213e 0f62 5d3d
00000350: aabc a33d 4b90 68bd 1475 0c3d bfe4 ed3d
00000360: af25 393d 24d5 9f3d b82b 0b3e 61a5 e83d
00000370: 3737 823d 8530 56be 94c2 04be 8378 2bbe
00000380: 10dd 313e 6f3a 16be e9e1 05be 1803 cd3c
00000390: 95fb c3bc 61ce 813d b7d0 19bd 037f 993d
000003a0: 2217 21be 1382 37be b23e 4a3e 26c2 7dbd
000003b0: 3e27 723c 3518 b93d 34aa b03a cf92 c3bd
000003c0: 62b1 953d 0738 a8bd 64e6 3a3e 7138 053c
000003d0: 4ac3 ed3d 7a3c fb3d 8dd2 5d3d 8c54 9b3d
000003e0: 6f8d fe3d acfe 13be da5f 3c3d 04cc d5bd
000003f0: 7243 093e 3e7e 093c 972d 753d 1311 e83d

fc2.weight f4 [256, 260]
-0.077332735 -0.009006562 0.07724385 0.033351637 -0.07271864 0.05007142 -0.034236193 -0.037151396
0.12592955 -0.063744016 0.0858598 0.036369316 -0.0565586 0.14521141 -0.009750079 0.03744435
0.029587978 0.02747242 -0.07437829 -0.037987243 0.073960684 -0.05351806 -0.06027654 0.04137631
0.044024546 -0.06104964 0.029057018 -0.0005895015 -0.050310835 -0.021247135 -0.011683451 -0.033875126
0.03907423 0.0063154716 -0.007345152 -0.096088484 -0.07521112 0.03027541 0.06672504 0.119130485
-0.039008833 0.039077573 0.016030582 0.03200565 -0.06180227 0.019975664 0.11079203 -0.038887147
-0.015614131 -0.10311516 -0.10282536 -0.018421492 -0.017964505 -0.017068896 -0.029967533 -0.05301898
-0.0032047364 0.092636004 -0.03892925 0.08589601 -0.1015972 0.02702536 -0.011660944 0.0598533
-0.009184412 -0.11169294 -0.13431762 0.009856237 0.019732367 0.04752399 0.09251587 -0.016455892
0.15010107 -0.048593137 0.047700923 -0.025686236 -0.02167815 -0.08510236 -0.035236888 -0.076154016
0.08154536 -0.043974712 0.004802765 -0.0104516 0.0012774216 -0.12708399 -0.023100095 -0.013047751
0.033536363 -0.099949785 -0.04250268 -0.030712273 0.11180261 0.051657468 0.027181793 -0.0403131
0.055944864 0.046461895 0.027609188 0.007322146 -0.10021883 -0.014740555 0.0032794746 0.12843166
-0.114037745 0.05354138 -0.028727686 0.084213786 0.046712432 -0.03659306 0.14685825 -0.01809731
0.038253844 0.0014005059 -0.043177795 -0.029764144 -0.02232114 0.05036417 0.006098447 -0.13064478
0.07316695 -0.071629964 -0.06556818 -0.073666275 0.01466137 -0.003892562 0.029700123 0.07935252
-0.058743246 -0.036407303 0.03696354 0.0027625337 0.0011760722 -0.11494668 0.026675288 -0.10365027
-0.012471464 -0.03463783 0.010659508 0.0007862189 -0.074045524 0.055539876 0.12316985 0.015026521
0.044559184 -0.088059284 0.029881317 0.028256506 0.01795511 0.01935226 -0.009695361 -0.059568886
-0.054918952 -0.024978224 -0.014866283 -0.013850591 0.05786341 -0.019144071 -0.07685748 0.021741658
0.0014914377 0.08208365 -0.009287318 -0.05092793 0.13857628 -0.06914522 -0.01534184 -0.04681741
0.015697517 -0.01733498 -0.04076874 0.096043035 0.042330492 -0.0121125225 0.0416566 -0.025323171
0.06861032 0.08027299 0.029016314 -0.0496392 0.008059316 0.07829337 -0.13006483 -0.03698356
0.059910234 -0.12117619 -0.040910885 0.025728188 0.01857792 -0.090419166 0.022389613 -0.030333215
-0.03797119 0.009189411 -0.021970365 0.034519542 -0.051080305 0.044276122 0.05552367 -0.13994928
0.07713882 0.050074197 -0.099647075 -0.0007235216 -0.048469912 -0.06557234 0.04342015 -0.20467103
-0.08543197 -0.054570295 0.0031099992 -0.055453088 0.09470922 -0.02727503 0.029830856 -0.038587477
-0.058136854 -0.12530698 -0.0021427649 -0.02694423 -0.024040231 0.063321814 0.0812064 0.05991023
0.024840306 -0.16765036 0.06262996 0.06596363 -0.013409203 -0.08184525 0.028873032 0.0015481655
0.031142548 0.008307845 -0.006435577 0.005811366 -0.041608583 -0.042075433 0.0008384773 0.03535851
0.040664874 0.033144113 -0.022412123 -0.01894394 0.03427179 0.05179849 0.0004132614 -0.0008804796
0.07925058 0.014193774 0.021668872 0.049348954 -0.09056349 0.0031279647 -0.004595711 -0.019326793
00000000: a060 9ebd 4290 13bc 0632 9e3d ba9b 083d
00000010: 83ed 94bd b017 4d3d 403b 0cbd 102c 18bd
00000020: adf3 003e 398c 82bd 43d7 af3d fef7 143d
00000030: fea9 67bd 4db2 143e ccbe 1fbc 3f5f 193d
00000040: 7d62 f23c d70d e13c a553 98bd 8398 1bbd
00000050: b378 973d c135 5bbd 89e4 76bd 357a 293d
00000060: 1553 343d 300f 7abd fc08 ee3c c788 1aba
00000070: bc12 4ebd 790e aebc f26b 3fbc a5c0 0abd
00000080: 4d0c 203d 04f2 ce3b 9aaf f0bb 0aca c4bd
00000090: 4a08 9abd 2304 f83c 23a7 883d affa f33d
000000a0: bac7 1fbd ce0f 203d 9152 833c 5b18 033d
000000b0: 6124 7dbd 01a4 a33c efe6 e23d 2148 1fbd
000000c0: 6ad2 7fbc 0a2e d3bd 1a96 d2bd abe8 96bc
000000d0: 4c2a 93bc 12d4 8bbc 797e f5bc 6e2a 59bd
000000e0: 8e06 52bb f2b7 bd3d 4774 1fbd 3fea af3d
000000f0: 3112 d0bd 4a64 dd3c 8b0d 3fbc bc28 753d
00000100: 377a 16bc 45bf e4bd 8f8a 09be 0e7c 213c
00000110: c6a5 a13c 84a8 423d f678 bd3d 82ce 86bc
00000120: 18b4 193e 9909 47bd 0b62 433d f16b d2bc
00000130: 6096 b1bc 254a aebd 8e54 10bd a3f6 9bbd
00000140: 4101 a73d d41e 34bd 8360 9d3b 303d 2bbc
00000150: 286f a73a 4e22 02be 693c bdbc 3cc6 55bc
00000160: 6d5d 093d 79b2 ccbd 4a17 2ebd 4e98 fbbc
00000170: c4f8 e43d c896 533d 5aac de3c 591f 25bd
00000180: 7126 653d d44e 3e3d aa2c e23c 9dee ef3b
00000190: 883f cdbd 5e82 71bc 74ec 563b 9783 033e
000001a0: 9f8c e9bd 354e 5b3d 5356 ebbc 4778 ac3d
000001b0: 8955 3f3d 9be2 15bd 0262 163e cf40 94bc
000001c0: 10b0 1c3d 2e91 b73a 33db 30bd efd3 f3bc
000001d0: d3da b6bc a94a 4e3d 7bd5 c73b bfc7 05be
000001e0: 8ed8 953d bbb2 92bd 9c48 86bd 58de 96bd
000001f0: 3e36 703c 5a1a 7fbb ac4d f33c 9383 a23d
00000200: c29c 70bd d31f 15bd 1567 173d a00b 353b
00000210: 6f26 9a3a 2a69 ebbd 2286 da3c 9846 d4bd
00000220: 1d55 4cbc 66e0 0dbd 38a5 2e3c 421a 4e3a
00000230: 2ea5 97bd c87d 633d 7940 fc3d cc31 763c
00000240: b183 363d 6d58 b4bd aac9 f43c 307a e73c
00000250: 9816 933c a188 9e3c 4bd9 1ebc 81fe 73bd
00000260: b2f2 60bd 229f ccbc b691 73bc 97ed 62bc
00000270: 2f02 6d3d 07d4 9cbc 7467 9dbd 901b b23c
00000280: 587c c33a 791b a83d d629 18bc ce99 50bd
00000290: f1e6 0d3e 029c 8dbd 575c 7bbc 9dc3 3fbd
000002a0: 1498 803c 1702 8ebc 1ffd 26bd 36b2 c43d
000002b0: bd62 2d3d 9a73 46bc 1ca0 2a3d 8a72 cfbc
000002c0: 9183 8c3d 2a66 a43d 9fb3 ed3c 7952 4bbd
000002d0: 390b 043c 4658 a03d b72f 05be 137c 17bd
000002e0: 6f64 753d 392b f8bd 2c92 27bd ecc3 d23c
000002f0: b930 983c af2d b9bd 6c6a b73c 5d7d f8bc
00000300: ae87 1bbd 2f8f 163c 32fb b3bc 5d64 0d3d
00000310: 9539 51bd e15a 353d ca6c 633d dd4e 0fbe
00000320: f5fa 9d3d 9a1a 4d3d c413 ccbd b6aa 3dba
00000330: 6388 46bd ca4a 86bd 54d9 313d 4895 51be
00000340: f5f6 aebd 1a85 5fbd 21d1 4b3b c722 63bd
00000350: e8f6 c13d e26f dfbc d75f f43c e70d 1ebd
00000360: e920 6ebd 7950 00be a16d 0cbb 25ba dcbc
00000370: 05f0 c4bc deae 813d 8b4f a63d 6e64 753d
00000380: e67d cb3c 89ac 2bbe 2344 803d f117 873d
00000390: 46b2 5bbc 7c9e a7bd 2387 ec3c d0eb ca3a
000003a0: a81e ff3c a11d 083c 88e1 d2bb 456d be3b
000003b0: c36d 2abd 4a57 2cbd 42cd 5b3a 16d4 103d
000003c0: 3690 263d 1fc2 073d a199 b7bc 5230 9bbc
000003d0: 9460 0c3d a72a 543d 02ab d839 fccf 66ba
000003e0: 214e a23d 018d 683c eb82 b13c 2122 4a3d
000003f0: 5a79 b9bd 8afe 4c3b 9e97 96bb 3953 9ebc

fc2.bias f4 [256]
-0.0568541 -0.03444466 0.035788033 0.0065653822 -0.013844038 0.037883237 -0.010707741 -0.017639589
0.029645178 -0.016022846 0.03353695 -0.017669171 -0.012776264 -0.030000804 0.06956514 0.05976487
0.09344236 0.08268149 0.017401384 -0.008463525 0.057746567 0.0124799125 0.07191938 -0.03494035
-0.046146035 -0.043399084 0.003093862 0.043096963 -0.015059302 0.008233664 -0.014909909 0.016638227
-0.023005264 -0.04626523 0.051409338 0.018810261 -0.022262277 0.029138487 0.012166373 0.055084784
0.025501095 -0.03072404 0.045616373 0.08222209 -0.054745983 -0.033442818 0.014533769 0.0445043
-0.007869932 0.06954437 -0.055238254 -0.061417297 -0.08128046 0.0125046335 -0.027697746 0.016365271
-0.06659207 -0.023729138 0.090073615 0.021516124 -0.0061844923 -0.06490182 0.07708808 0.032875486
0.064486906 0.042927716 -0.063538484 0.06709413 0.08221841 -0.0013104237 0.052967336 -0.00929602
-0.05755425 -0.01131955 -0.0066733086 -0.040851634 0.08789693 -0.028747115 0.079468556 -0.077911645
0.055228166 0.10111503 0.043044854 -0.0032317103 -0.023517707 0.05221674 0.08060726 0.00922403
0.04266815 0.083863065 0.051001694 -0.027152905 -0.033155784 -0.07042427 0.009347578 0.041357607
-0.039720275 0.005398984 -0.011932149 0.048477925 -0.058444466 0.054624796 0.050412457 -0.018459404
-0.0011957802 0.070085965 -0.030016003 0.03717186 -0.009449755 -0.03677306 0.05702751 0.070837654
-0.04761259 0.0059381532 -0.02201288 -0.06838158 -0.056759316 -0.04753088 0.11573401 0.046929482
0.08191396 0.004530535 0.0052347127 -0.023261636 -0.05718114 -0.029450798 -0.037499 0.0034376844
-0.015012102 0.0758484 -0.038490098 0.061070934 -0.037187062 0.089608535 -0.08712703 -0.056093626
0.030615957 -0.09375827 0.03480311 -0.06182954 0.010658442 -0.017430129 0.002575677 0.0011978073
0.039490584 -0.07145706 -0.08752827 0.019050732 0.017941847 -0.05138985 -0.0384446 -0.017672159
-0.08464476 -0.019558763 0.016578007 0.033327207 0.07688353 -0.0117620155 0.0033871513 -0.012246768
-0.030436393 0.039681852 -0.008983942 -0.08407327 -0.03707336 0.076950826 -0.07829358 -0.0784856
-0.023181438 0.005247984 0.08455633 -0.07132629 0.074788034 -0.028826626 -0.015850056 -0.06300173
-0.014917051 0.0071027763 0.057314213 -0.025047746 0.08529517 -0.032193176 0.030994838 -0.008965415
-0.051903524 -0.020894287 -0.0023389081 0.09366179 -0.020647854 -0.00019520636 0.06676497 -0.02006845
0.04536241 0.00997218 0.07558494 -0.025692115 -0.043383688 -0.02386789 -0.029766066 0.089619495
0.0850233 -0.07421207 -0.00584429 -0.072659194 -0.07338233 -0.05490021 -0.02049735 -0.00837795
0.026868038 -0.03392966 -0.017205408 0.047757007 -0.07239906 -0.04102648 -0.06516567 0.052863203
0.02678072 0.0116633335 -0.015493747 -0.05250974 -0.003513175 0.010010138 0.048811775 -0.0052889003
0.04182424 0.027858028 -0.0019938431 -0.024586642 -0.020808037 0.04369254 0.036521245 0.041573506
0.081310935 0.015392362 -0.043327183 -0.036716107 0.05365671 0.020876171 0.014942338 0.043551233
0.10269353 0.036284894 -0.012868064 -0.033085577 0.084340334 0.0008600098 0.015359517 -0.018159652
-0.01026939 0.09561193 0.021702802 0.071068086 -0.011872963 -0.08531948 0.020833252 -0.027171822
00000000: d8df 68bd d815 0dbd 7996 123d 6b22 d73b
00000010: 1bd2 62bc 742b 1b3d 856f 2fbc e680 90bc
00000020: 72da f23c 5842 83bc 0a5e 093d f0be 90bc
00000030: 8953 51bc 3fc4 f5bc 2b78 8e3d 02cc 743d
00000040: b55e bf3d ea54 a93d 598d 8e3c 99aa 0abc
00000050: aa87 6c3d 8c78 4c3c 784a 933d 9d1d 0fbd
00000060: a003 3dbd 3dc3 31bd 64c2 4a3b 7186 303d
00000070: 4abb 76bc 7de6 063c b148 74bc e44c 883c
00000080: 8975 bcbc 9c80 3dbd 9992 523d fa17 9a3c
00000090: 615f b6bc d6b3 ee3c 7855 473c 95a0 613d
000000a0: ace7 d03c fbb0 fbbc 3cd8 3a3d 0e64 a83d
000000b0: 533d 60bd 56fb 08bd 0c1f 6e3c 244a 363d
000000c0: e3f0 00bc 476d 8e3d 8241 62bd b490 7bbd
000000d0: 5f76 a6bd 3ce0 4c3c 62e6 e2bc 7610 863c
000000e0: 6c61 88bd 9c63 c2bc 8478 b83d 9542 b03c
000000f0: 48a7 cabb 3feb 84bd 5be0 9d3d 72a8 063d
00000100: b611 843d f9d4 2f3d 7720 82bd a668 893d
00000110: 2062 a83d 86c2 abba 47f4 583d 554e 18bc
00000120: 01be 6bbd a275 39bc c5ab dabb 0b54 27bd
00000130: 4e03 b43d 127f ebbc 69c0 a23d 2490 9fbd
00000140: ee36 623d 6615 cf3d cd4f 303d 1acb 53bb
00000150: 35a8 c0bc 38e1 553d 6b15 a53d 6320 173c
00000160: ccc4 2e3d 66c0 ab3d 27e7 503d c56f debc
00000170: 5cce 07bd 9a3a 90bd 9526 193c 9866 293d
00000180: bab1 22bd f6e9 b03b 0f7f 43bc ca90 463d
00000190: 7763 6fbd 40be 5f3d 4b7d 4e3d 2d38 97bc
000001a0: babb 9cba 3b89 8f3d 1fe4 f5bc 8541 183d
000001b0: 25d3 1abc 599f 16bd ae95 693d 5513 913d
000001c0: 6b05 43bd d794 c23b 5b54 b4bc a40b 8cbd
000001d0: 757c 68bd bdaf 42bd f405 ed3d 2139 403d
000001e0: 82c2 a73d e274 943b f487 ab3b 308f bebc
000001f0: c536 6abd cd42 f1bc 8d98 19bd c64a 613b
00000200: 52f5 75bc 6856 9b3d cba7 1dbd 8425 7a3d
00000210: 7651 18bd ae84 b73d a86f b2bd 6ec2 65bd
00000220: 51ce fa3c 5604 c0bd b58d 0e3d f940 7dbd
00000230: bfa0 2e3c a1c9 8ebc b0cc 283b beff 9c3a
00000240: e1c0 213d 1458 92bd 0642 b3bd 4810 9c3c
00000250: c8fa 923c 2a7e 52bd 1678 1dbd 34c5 90bc
00000260: 3b5a adbd b339 a0bc 9ace 873c 1c82 083d
00000270: 1d75 9d3d 78b5 40bc f8fa 5d3b aba6 48bc
00000280: be55 f9bc 7089 223d 6231 13bc 9b2e acbd
00000290: 3cda 17bd 6598 9d3d 6258 a0bd 0fbd a0bd
000002a0: 00e7 bdbc 48f7 ab3b df2b ad3d 8513 92bd
000002b0: 782a 993d d125 ecbc fad7 81bc 0d07 81bd
000002c0: a666 74bc 68be e83b 4fc2 6a3d ee30 cdbc
000002d0: 3caf ae3d fedc 03bd e3e8 fd3c ade3 12bc
000002e0: ca98 54bd 7f2a abbc 5e48 19bb c1d1 bf3d
000002f0: b025 a9bc 4fb0 4cb9 13bc 883d 9766 a4bc
00000300: efcd 393d 5b62 233c 47cc 9a3d 4578 d2bc
00000310: 18b3 31bd 9886 c3bc f7d7 f3bc 6d8a b73d
00000320: b220 ae3d 7ffc 97bd 7581 bfbb 58ce 94bd
00000330: 7a49 96bd 0bdf 60bd 0fea a7bc ab43 09bc
00000340: 5c1a dc3c d4f9 0abd 5bf2 8cbc da9c 433d
00000350: f545 94bd 620b 28bd 9475 85bd 1687 583d
00000360: 3e63 db3c 9117 3f3c 7cd9 7dbc 7414 57bd
00000370: 4c3d 66bb 9001 243c dbee 473d 834e adbb
00000380: e54f 2b3d 8536 e43c 23ab 02bb ed69 c9bc
00000390: 9e75 aabc f3f6 323d 4d97 153d fb48 2a3d
000003a0: 5986 a63d 3f30 7c3c d877 31bd a163 16bd
000003b0: 23c7 5b3d 8104 ab3c b5d0 743c c762 323d
000003c0: fc50 d23d 789f 143d 93d4 52bc be84 07bd
000003d0: a0ba ac3d 4872 613a 7ca6 7b3c 8dc3 94bc
000003e0: f240 28bc 30d0 c33d 13ca b13c 258c 913d
000003f0: d186 42bc fbbb aebd 7faa aa3c 7197 debc

fc3.weight f4 [128, 256]
-0.08589831 -0.08532239 0.049256768 0.012461153 -0.026414808 0.01514788 0.08058739 -0.062910914
-0.057338644 0.06564493 -0.030615285 -0.030942064 -0.119825676 0.06162998 0.10761334 -0.08479161
-0.09524545 -0.013386767 0.04940814 -0.18717556 -0.03152225 -0.0017517742 0.00884413 -0.03202747
0.031258054 -0.10460456 -0.05151711 0.027612649 -0.0665758 -0.11237006 -0.05450085 -0.013257393
-0.060113 0.06833089 0.025165422 0.014928407 0.10419092 0.041179612 0.10591655 0.056164324
0.06640788 -0.10145447 -0.10280088 0.009895756 0.103271015 -0.0034530764 0.07097554 0.06815241
0.03656894 -0.027469298 0.06683726 -0.045250308 -0.034753427 -0.010019341 0.05037388 0.16737188
0.028697567 0.08043622 0.019002857 -0.17145677 -0.173678 0.02515489 -0.04170677 0.10200793
-0.050132316 -0.04469667 -0.078488745 0.031772718 0.08474719 0.061760064 -0.07234968 0.09942987
0.11457992 -0.11588917 -0.06768168 -0.02541092 -0.02502042 -0.05185212 0.010745677 -0.0061585996
0.05737611 -0.035231873 0.18701689 -0.0048980922 -0.060230885 0.050757483 0.066940844 -0.12312446
0.074715175 -0.024511136 -0.013442624 -0.16173427 -0.046777565 0.019297685 0.020515712 0.018624572
-0.012973024 0.060460985 0.029350342 -0.032862023 0.10391698 0.05634645 -0.07810939 -0.10064724
0.034080867 -0.083368026 -0.095945865 0.03273733 0.008726801 -0.018833203 -0.012336292 0.036741473
-0.041131735 0.14155015 -0.042810086 0.06540457 0.12669726 -0.021105614 -0.06219577 0.044605367
-0.0013089828 -0.022544555 0.041211296 -0.0562761 0.094007745 -0.121393256 0.08758243 -0.024067007
-0.0057827854 -0.23698688 0.01792076 0.083937265 -0.044585064 -0.10004876 -0.06768688 -0.04290548
0.047768753 0.067234956 -0.023695823 0.14090738 0.035152864 0.09946879 0.104492955 0.1218371
-0.14105876 0.06488557 0.030329907 -0.03521005 -0.07662256 0.020110939 0.14768554 -0.0837498
-0.013338106 0.028078936 0.13494417 -0.0985021 -0.06956722 0.009379719 0.037468296 0.051099177
0.09837376 -0.008742538 -0.12286698 0.10822082 0.0031338264 -0.021837138 0.08907887 0.058217593
-0.022579629 -0.07055681 0.090240024 -0.045138106 0.04595065 0.03566682 -0.036911104 0.09320533
-0.0005555905 -0.017121496 0.051544763 -0.040882755 0.13338786 -0.11807313 -0.0041808765 0.008030449
0.14257622 0.066417634 0.014187484 0.011166154 0.034472194 0.007763817 0.0009267948 -0.013654179
-0.020198444 0.090346806 0.07921862 0.14883174 -0.022256866 -0.08961804 0.033236858 -0.2976568
-0.047729343 -0.091874376 0.09047875 -0.020394789 0.012207891 -0.02656136 -0.016980138 -0.044320088
0.038121607 -0.072900355 -0.046069358 0.13330913 0.058842614 -0.16439144 0.05156742 0.07701097
0.032381054 0.06297129 -0.05203085 -0.17150913 0.03705566 -0.06075669 0.06607612 -0.17894422
0.008702779 -0.09859557 -0.029869067 0.00063037046 -0.0053863833 -0.067146495 -0.20217447 0.011282642
-0.1485494 0.101297036 -0.012555988 0.023671947 0.065108545 0.06692046 0.026099619 0.048947584
-0.05932233 -0.03419195 0.06725293 -0.04481745 0.05944213 -0.2015501 0.1666625 -0.13772005
-0.1056852 0.033979077 0.04490264 0.058167282 0.039643325 0.10077449 0.005691415 0.14153309
00000000: 74eb afbd 81bd aebd 77c1 493d dd29 4c3c
00000010: de63 d8bc d02e 783c 000b a53d 70d7 80bd
00000020: eddb 6abd d970 863d e8cc fabc 367a fdbc
00000030: 2a67 f5bd b86f 7c3d 6264 dc3d 39a7 adbd
00000040: 0c10 c3bd 2c54 5bbc 3160 4a3d f3aa 3fbe
00000050: 7a1d 01bd ca9b e5ba f8e6 103c 3d2f 03bd
00000060: 7208 003d ea3a d6bd 9b03 53bd ec33 e23c
00000070: e558 88bd 4622 e6bd 493c 5fbd 8935 59bc
00000080: 0d39 76bd 11f1 8b3d b727 ce3c 4796 743c
00000090: 0d62 d53d f4ab 283d c7ea d83d 900c 663d
000000a0: db00 883d 5cc7 cfbd 4589 d2bd cf21 223c
000000b0: c17f d33d 024d 62bb a05b 913d 7e93 8b3d
000000c0: 50c9 153d 4b07 e1bc f9e1 883d 6358 39bd
000000d0: 9c59 0ebd 2928 24bc d754 4e3d 8963 2b3e
000000e0: 2917 eb3c bfbb a43d e1ab 9b3c 5d92 2fbe
000000f0: a5d8 31be a111 ce3c b8d4 2abd 89e9 d03d
00000100: 8b57 4dbd db13 37bd b5be a0bd 1c24 023d
00000110: ef8f ad3d 1ff8 7c3d 122c 94bd e3a1 cb3d
00000120: e1a8 ea3d 4d57 edbd b19c 8abd 902a d0bc
00000130: a0f7 ccbc e362 54bd a30e 303c 14ce c9bb
00000140: 3603 6b3d 4c4f 10bd 5b81 3f3e 2d80 a0bb
00000150: a9b4 76bd 14e7 4f3d 4818 893d ad28 fcbd
00000160: 4504 993d 94cb c8bc 743e 5cbc ab9d 25be
00000170: d599 3fbd 2e16 9e3c 9110 a83c 8f92 983c
00000180: ce8c 54bc f0a5 773d 2170 f03c 549a 06bd
00000190: 6dd2 d43d 89cb 663d d1f7 9fbd 2420 cebd
000001a0: 6198 0b3d dbbc aabd 447f c4bd 9417 063d
000001b0: dbfa 0e3c 1748 9abc 291e 4abc 3a7e 163d
000001c0: c079 28bd 86f2 103e a159 2fbd d5f2 853d
000001d0: edbc 013e aee5 acbc fec0 7ebd 1eb4 363d
000001e0: 2d92 abba 5caf b8bc 2dcd 283d c581 66bd
000001f0: 2287 c03d 079d f8bd 6b5e b33d 2c28 c5bc
00000200: 857d bdbb b0ac 72be 8fce 923c 4de7 ab3d
00000210: d49e 36bd 5de6 ccbd 6b9f 8abd a8bd 2fbd
00000220: 2ba9 433d 7bb2 893d be1d c2bc 064a 103e
00000230: 73fc 0f3d 4bb6 cb3d 6700 d63d bb85 f93d
00000240: b571 10be bae2 843d 6d76 f83c 6a38 10bd
00000250: 4aec 9cbd b2bf a43c e13a 173e 0485 abbd
00000260: 1288 5abc cc05 e63c ce2e 0a3e 78bb c9bd
00000270: 4279 8ebd 65ad 193c 5b78 193d 5f4d 513d
00000280: 2f78 c93d dd3c 0fbc afa1 fbbd e1a2 dd3d
00000290: e260 4d3b cce3 b2bc fc6e b63d 9275 6e3d
000002a0: eaf8 b8bc 1780 90bd c3cf b83d bce2 38bd
000002b0: c036 3c3d 5f17 123d 1930 17bd 70e2 be3d
000002c0: 0ca5 11ba 6142 8cbc 9a20 533d ad74 27bd
000002d0: d496 083e 53d0 f1bd bcff 88bb 2592 033c
000002e0: 80ff 113e f805 883d 9f72 683c 3ff2 363c
000002f0: b732 0d3d 9e67 fe3b 25f4 723a c7b5 5fbc
00000300: 3577 a5bc bf07 b93d 5f3d a23d 5967 183e
00000310: 0854 b6bc aa89 b7bd 5f23 083d 7966 98be
00000320: d87f 43bd a228 bcbd ec4c b93d f912 a7bc
00000330: 9b03 483c 3697 d9bc ee19 8bbc fb88 35bd
00000340: 6725 1c3d c84c 95bd 39b3 3cbd 3082 083e
00000350: f404 713d 3b56 28be 5c38 533d edb7 9d3d
00000360: ffa1 043d 17f7 803d 4d1e 55bd 17a0 2fbe
00000370: adc7 173d 02dc 78bd eb52 873d 273d 37be
00000380: 1a96 0e3c 79ec c9bd f9af f4bc 723f 253a
00000390: 4280 b0bb 1a84 89bd d306 4fbe d5da 383c
000003a0: 551d 18be d274 cf3d a1b7 4dbc aceb c13c
000003b0: a157 853d 980d 893d dece d53c 437d 483d
000003c0: f9fb 72bd dc0c 0cbd e7bb 893d 8192 37bd
000003d0: 9779 733d 2663 4ebe 93a9 2a3e 7c06 0dbe
000003e0: 7b71 d8bd a52d 0b3d d5eb 373d d140 6e3d
000003f0: 0a61 223d db62 ce3d 0d7f ba3b 0dee 103e

fc3.bias f4 [128]
0.05675098 0.048615716 -0.1098784 0.11353298 -0.04680541 0.031271953 0.021748262 -0.004703785
0.09897149 -0.062663525 -0.029828263 -0.0063720774 -0.07460173 0.12147974 0.012562958 0.0411068
-0.0071851267 0.09909303 0.066469766 0.12755825 0.10373422 0.0033835818 -0.042744476 -0.06589077
0.050996702 0.07778171 -0.06259782 0.014477603 -0.10929619 0.07655401 0.11755254 0.0071444227
0.07714104 0.05437357 0.09749246 0.05925197 0.11361412 -0.014868253 0.12411142 0.040216822
-0.010077471 0.08495974 0.010310269 0.10004878 -0.07731817 -0.011339908 0.12196895 0.039561357
0.038734574 -0.017149018 -0.01260645 -0.027461989 0.06595407 0.028815804 0.10022063 0.053255077
0.0035658502 -0.059014488 0.0013425573 0.09066055 -0.0014079554 0.04645359 0.03181583 0.0860609
-0.07641341 0.031213982 0.04725524 -0.06772891 0.011316246 0.071216196 0.018532736 0.09000987
0.05792716 0.011073184 -0.107852 0.121662594 -0.07604831 0.0632985 0.11090155 -0.08602723
-0.05044715 -0.00034090556 0.005138581 -0.08230903 -0.057544563 0.06978902 0.03140105 0.083593406
0.057140086 -0.12731078 0.0028776554 0.034152146 0.12234361 0.022472672 -0.050612744 -0.07063446
-0.08955831 0.042402945 0.029739494 0.08624339 0.110486776 -0.038016755 0.06418994 -0.039165583
-0.097935565 0.014081196 0.044049017 -0.094315596 0.070474185 0.08667058 -0.009742154 0.06939721
-0.053938836 0.052083455 0.095414266 0.02785758 0.018307855 0.02066068 0.12486836 -0.021821234
-0.039164893 0.03457498 -0.11685221 0.11339603 0.032816637 0.10436017 0.12025512 0.044985946
00000000: b773 683d 4621 473d ed07 e1bd fb83 e83d
00000010: 08b7 3fbd 0517 003d 6929 b23c 3522 9abb
00000020: 91b1 ca3d bc55 80bd 675a f4bc dccc d0bb
00000030: cbc8 98bd 5fca f83d ddd4 4d3c 9b5f 283d
00000040: 3671 ebbb 49f1 ca3d 4d21 883d a19e 023e
00000050: 9b72 d43d 15bf 5d3b d514 2fbd bdf1 86bd
00000060: ebe1 503d 044c 9f3d 4933 80bd 7833 6d3c
00000070: aed6 dfbd 59c8 9c3d 63bf f03d c31b ea3b
00000080: 1ffc 9d3d d2b6 5e3d 20aa c73d 32b2 723d
00000090: 85ae e83d f999 73bc 212e fe3d 65ba 243d
000000a0: fa1b 25bc 5fff ad3d 67ec 283c 60e6 cc3d
000000b0: fd58 9ebd 05cb 39bc dbca f93d 170b 223d
000000c0: 25a8 1e3d 197c 8cbc 498b 4ebc f7f7 e0bc
000000d0: ed12 873d 1f0f ec3c 7940 cd3d ff21 5a3d
000000e0: 0ab1 693b 2db9 71bd bff8 af3a 3dac b93d
000000f0: 258b b8ba 1f46 3e3d 5151 023d b240 b03d
00000100: a27e 9cbd 77b4 ff3c b68e 413d 74b5 8abd
00000110: c767 393c ccd9 913d f7d1 973c 1857 b83d
00000120: 0845 6d3d 4d6c 353c 82e1 dcbd 3d2a f93d
00000130: 37bf 9bbd a5a2 813d 5a20 e33d 0b2f b0bd
00000140: aca1 4ebd 92bb b2b9 8b61 a83b a391 a8bd
00000150: d9b3 6bbd 8ced 8e3d 639e 003d 0533 ab3d
00000160: b90b 6a3d c25d 02be 0c97 3c3b 1fe3 0b3d
00000170: 498f fa3d 9c18 b83c 4f4f 4fbd cda8 90bd
00000180: 596a b7bd b6ae 2d3d 3da0 f33c 60a0 b03d
00000190: e446 e23d 75b7 1bbd 0476 833d 176c 20bd
000001a0: 7192 c8bd d1b4 663c be6c 343d 8928 c1bd
000001b0: c554 903d 5880 b13d 8e9d 1fbc 2020 8e3d
000001c0: f8ee 5cbd 7655 553d 8e68 c33d 9435 e43c
000001d0: 5bfa 953c 9640 a93c fcba ff3d 72c2 b2bc
000001e0: 5e6b 20bd 7f9e 0d3d 3650 efbd 2e3c e83d
000001f0: bd6a 063d c9ba d53d 5148 f63d 2f43 383d

fc4.weight f4 [1, 128]
0.18962015 0.19608912 -0.2529554 0.13614899 -0.20180884 -0.17841165 0.16376415 0.19906057
0.12859938 -0.623918 -0.21422891 0.25850722 -0.21167159 0.048358213 0.29571822 0.10634693
-0.27740556 0.07070465 0.15924847 0.056605276 0.1052932 -0.4321707 -0.20234203 -0.30036485
0.31474626 0.09449454 -0.27926677 0.24041632 -0.26881725 0.18556733 0.08699488 0.13422702
0.17953327 0.26423946 0.11779765 0.08842319 0.075842015 -0.19930987 0.1063455 0.08586041
0.25241232 0.07654795 0.2774555 0.33690062 -0.25180534 -0.21527867 0.050079007 0.14965673
0.09596179 -0.1890689 0.15259366 -0.22543032 0.27204955 -0.31014177 0.27842027 0.15259962
-0.22299933 -0.38599473 0.17290434 0.11563896 -0.23061134 0.1677004 0.10886874 0.09149642
-0.26383576 0.2659982 0.23908752 -0.3524133 -0.26059955 0.31629828 0.27597055 0.17701843
0.14473283 0.3085502 -0.18080819 0.10148151 -0.18360993 0.13441573 0.08794342 -0.18233636
-0.2572974 -0.26144928 -0.18087037 -0.16622296 -0.31943437 0.14091276 0.21569291 0.12398502
0.3185469 -0.19623388 -0.3567188 0.13383047 0.042939384 0.24690776 -0.44342747 -0.25387952
-0.21047729 0.2112947 0.0952304 0.23950969 0.08583443 -0.32260576 0.044753265 -0.16850163
-0.16556303 0.40908605 -0.3948078 -0.1635019 0.17345946 0.13190866 -0.2698656 0.17665967
-0.28511095 0.0914434 0.11405796 0.18069695 0.08046443 -0.2814374 0.071130015 -0.23915708
-0.17188868 0.17200646 -0.37669155 0.15694225 0.144094 0.2752609 0.11077391 0.32241577
00000000: c92b 423e 96cb 483e 5f83 81be a46a 0b3e
00000010: faa6 4ebe 8bb1 36be cab1 273e 89d6 4b3e
00000020: 8eaf 033e 17b9 1fbf d35e 5bbe 0f5b 843e
00000030: 70c0 58be 4313 463d 6168 973e 6bcc d93d
00000040: 1a08 8ebe 99cd 903d 0812 233e efda 673d
00000050: f6a3 d73d 7a45 ddbe c032 4fbe 6cc9 99be
00000060: 6c26 a13e 5a86 c13d 0efc 8ebe b22f 763e
00000070: 6aa2 89be 5d05 3e3e 5f2a b23d cf72 093e
00000080: 92d7 373e 654a 873e e53f f13d 3817 b53d
00000090: 0f53 9b3d e317 4cbe abcb d93d 95d7 af3d
000000a0: 303c 813e 2cc5 9c3d a60e 8e3e 3d7e ac3e
000000b0: a1ec 80be 0372 5cbe a51f 4d3d 9d3f 193e
000000c0: 9d87 c43d 479b 41be 8341 1c3e 35d7 66be
000000d0: 144a 8b3e e7ca 9ebe 1a8d 8e3e 1343 1c3e
000000e0: f059 64be 1aa1 c5be d60d 313e 1ed4 ec3d
000000f0: 6125 6cbe a7b9 2b3e 93f6 de3d 7a62 bb3d
00000100: 7b15 87be eb30 883e 5cd3 743e 846f b4be
00000110: 4e6d 85be d9f1 a13e 034c 8d3e 5244 353e
00000120: d834 143e 4bfa 9d3e c825 39be 8ad5 cf3d
00000130: 3e04 3cbe 47a4 093e ae1b b43d 62b6 3abe
00000140: 7cbc 83be aedc 85be 1536 39be 5a36 2abe
00000150: e78c a3be 6f4b 103e 9ade 5c3e dceb fd3d
00000160: 9418 a33e 89f1 48be d9a3 b6be db0a 093e
00000170: 35e1 2f3d 63d5 7c3e ed08 e3be 7ffc 81be
00000180: 5c87 57be a35d 583e 2808 c33d 0742 753e
00000190: f6c9 af3d 952c a5be 334f 373d b18b 2cbe
000001a0: 5b89 29be ba73 d13e 3f24 cabe 0b6d 27be
000001b0: 5b9f 313e 1013 073e d32b 8abe 46e6 343e
000001c0: 10fa 91be ad46 bb3d 3897 e93d 9f08 393e
000001d0: 89ca a43d 9018 90be 9dac 913d 98e5 74be
000001e0: 9603 30be 7622 303e b7dd c0be 78b5 203e
000001f0: 618d 133e ffee 8c3e 6fdd e23d ae13 a53e
