critic_final.pth (torch_old, 435476 bytes, 7 tensors)

fcs1.weight f4 [256, 33]
000000 2f 08 e0 3c e0 05 2d bd 08 10 c1 3d a2 15 0d 3d
       0.027347652 -0.04224193 0.09426886 0.03444446
000010 be 7e 9b bd e3 7e 3f bb 1e 3f 94 3d 75 bd 36 3d
       -0.075925335 -0.0029219917 0.07238601 0.044614274
000020 06 d1 11 3c 5d c6 87 bd a1 69 6e bc 00 8c dd 3c
       0.008899933 -0.06629632 -0.014551551 0.027044296
000030 79 2c c6 bc 4a f2 7c bd 5f fb 22 3d c5 73 d4 3c
       -0.024191128 -0.061754502 0.039790507 0.02593411
000040 ca 60 de 3b a9 34 d9 3d 50 28 94 3b 7c 2d 48 bc
       0.0067864405 0.10605747 0.004521407 -0.012217876
000050 be b9 32 bc 47 ef fe bb 61 dd cd 3c 80 7d 51 3c
       -0.010908542 -0.007779989 0.025129976 0.012786269
000060 fe 50 88 bc d9 95 9c 3c 21 fd bb 3d cc be c4 3d
       -0.016640183 0.019114422 0.0917914 0.09606704
000070 20 6e 25 bd 4e bf 33 3d e6 61 a6 bd cc 83 71 bd
       -0.040388227 0.043883614 -0.081241414 -0.058963582
000080 ac e4 cd 3e 15 8d 82 3d b7 d9 be 3b 01 8b 29 3d
       0.40213525 0.063745655 0.0058242935 0.04139233
000090 19 5a 85 bc 7b 9b 72 bd 94 31 8a bc d4 b5 6a bd
       -0.016278313 -0.05923031 -0.016869344 -0.05730231
0000a0 75 00 39 3c 1f 02 95 bd 32 75 0d bd 58 7f ba 3c
       0.011291613 -0.07275795 -0.034535594 0.0227658
0000b0 84 79 23 3c 43 8b 31 3d 20 61 89 3c a6 37 60 bc
       0.009977702 0.0433457 0.016769946 -0.013685143
0000c0 83 fd 14 3d 66 fb aa 3b 45 e9 f0 bb ce f2 80 bd
       0.03637458 0.0052179573 -0.0073520266 -0.06296311
0000d0 35 5a 1c 3d 8c 7f c0 b7 01 46 c4 bb 87 b8 39 3d
       0.038171966 -2.2947577e-05 -0.0059897904 0.045341995
0000e0 98 0d b9 3c 01 1d 18 3b d1 63 0c bc 73 54 26 bd
       0.02258949 0.0023210647 -0.00856872 -0.04060788
0000f0 d5 4c fd bc 8e 7b 7e 3d b2 d6 35 3d c4 12 4e 3b
       -0.030920425 0.06212955 0.044394203 0.003144429
000100 f4 46 19 bd 99 48 f6 be 2a d3 d3 3c 98 f7 90 3b
       -0.03742118 -0.48102263 0.025857527 0.0044240467
000110 b0 d7 da bd f0 11 79 3d 15 34 f5 bb f2 c3 c5 3c
       -0.106856704 0.060808122 -0.0074830153 0.024141286
000120 ae 19 e1 3d 94 93 0a ba 36 cb 7f 3d 51 b0 a1 3c
       0.10991226 -0.0005286273 0.062449656 0.019737395
000130 9e 7c 78 3c d3 51 a6 bc d7 bc 5e bd bf 63 87 3d
       0.01516643 -0.020302689 -0.05437931 0.06610822
000140 31 a8 46 bd 44 ba c0 3c 0f 80 4c 3d 58 fb d1 3c
       -0.048500244 0.023526318 0.049926814 0.025632545
000150 a9 4c 66 3d 07 82 b1 3c 35 6a e6 39 ca e8 c2 bc
       0.056225453 0.021668447 0.0004394815 -0.023792643
000160 c1 2c ed 3b 11 89 0a 3d 76 6f b5 bc 7f 20 53 bc
       0.007238001 0.033822123 -0.022147875 -0.012886166
000170 fa c5 8e 3d 8a 06 01 bb f3 e5 0d 3d d6 05 09 3d
       0.06971355 -0.0019687735 0.034643125 0.03345283
000180 d5 50 75 bd 36 10 7b 3d 6d 08 a6 3e ba 5a 5e bd
       -0.05989154 0.061294757 0.32428303 -0.054285742
000190 d4 41 0f 3d 47 b3 f2 bd 92 02 eb bc 75 1a 56 bb
       0.034974888 -0.11850601 -0.028687749 -0.0032669578
0001a0 eb 31 c6 bd b1 0f 96 bd fd ea e1 3c 39 4a b0 3d
       -0.0967749 -0.07327212 0.027577871 0.08607907
0001b0 19 11 03 bd 89 f0 15 3d 18 cd 04 bc 8c f4 64 bc
       -0.031998727 0.036606345 -0.008105539 -0.01397432
0001c0 b3 79 fa bc 9c 07 10 bd 59 cc e9 bc 11 e0 c5 bc
       -0.030575609 -0.035163507 -0.028539823 -0.024154695
0001d0 66 ce 8e 3d ba 8a 55 bd 56 c2 48 bb 18 ab 02 3d
       0.06972961 -0.052134253 -0.0030633411 0.03190145
0001e0 9f 3d 5c 3d e2 ae 25 3c a8 62 4b bc d7 14 33 3c
       0.053769704 0.010112496 -0.012413658 0.010930262
0001f0 57 96 02 3c e6 42 47 3d af 76 51 bc 71 76 ab 3d
       0.007970414 0.048647784 -0.012784644 0.083722
000200 58 08 78 3d 0b bb d5 3c bc 2e f9 3c 72 96 cc 3e
       0.060554832 0.026090166 0.030417792 0.3995853
000210 da 8a 73 bd b2 6a 21 3e 20 d0 bd 3c 34 8a b9 bd
       -0.05945859 0.15763357 0.02317053 -0.09059563
000220 f3 1d 91 3d 63 8c 22 bd 24 7e 93 3d 9a c3 c4 bd
       0.070857905 -0.039684664 0.07201794 -0.096076205
000230 2c 30 ba ba 65 28 26 be fc 64 8a bd af a2 0b 3d
       -0.001420503 -0.16226347 -0.067575425 0.034090694
000240 6c a7 21 be 85 59 9e bc 1a 71 ca bc 8e 60 d5 bc
       -0.15786523 -0.019329796 -0.024712134 -0.026047017
000250 5b 4e 5d bb 3a 12 a0 bc 23 ea 90 bc 89 93 bf bd
       -0.0033768627 -0.019539941 -0.01768977 -0.09354312
000260 bd da 7c bd d6 8a 43 3b ca 3c 12 3c d1 30 5f bd
       -0.061732043 0.0029837391 0.008925626 -0.054489914
000270 5c 1e 2c bc 89 c4 88 3c fc 2b 62 3d 9d 83 84 3b
       -0.010505285 0.016695278 0.055217728 0.00404401
000280 1e 91 6a bd d4 2d 8a bc 27 d0 8a bd 5c bd dd bc
       -0.0572673 -0.016867556 -0.06777983 -0.027067833
000290 b3 6f 98 be 40 16 5a 3d f5 2d 05 bd 75 04 07 3e
       -0.2977272 0.053243876 -0.03251453 0.13185294
0002a0 ed ae 13 3d f1 c9 1e 3e 77 0c 21 3e 1a fb a5 3c
       0.036055494 0.15506722 0.15727411 0.020261336
0002b0 33 0e 81 bd ce 26 89 3d 4d a4 08 3e d3 1e a9 bd
       -0.063015364 0.066968545 0.13343926 -0.082578324
0002c0 a7 28 16 bd c3 da cb bd 7f 3c 8d bd 9a 02 7b 3d
       -0.036659863 -0.09953835 -0.06896304 0.061281778
0002d0 fb 81 82 bd b6 1b 8e bd 94 cc 68 3d d9 1a 4d bd
       -0.06372448 -0.06938879 0.056835726 -0.050074432
0002e0 be 6d 61 3d 1d 32 79 bb 43 fc 44 bc 60 f2 30 bb
       0.0550363 -0.0038024255 -0.0120230345 -0.0026999936
0002f0 91 27 a3 bd 9e 4f 08 37 f9 8d 08 be 72 9b 06 bc
       -0.07966531 8.124769e-06 -0.13335408 -0.008215772
000300 2c a6 90 3c d7 e0 6b bd 3c df b3 bc 47 86 ad 3b
       0.017657362 -0.05758747 -0.021957032 0.005295548
000310 cc 0d 6a 3d 8d d8 ad bd 1d 1e 55 bd 80 b9 f2 bc
       0.057142064 -0.084885694 -0.05203067 -0.029629469
000320 d2 70 a6 bd 98 69 41 bc 1e 57 e9 3d 50 bb 45 be
       -0.081269875 -0.011804961 0.113935694 -0.19309735
000330 4f a1 dd bc 5b 74 2f 3d 4a 13 09 3e 6c 25 93 3c
       -0.027054457 0.042835575 0.13386264 0.01796218
000340 f0 79 a2 bd d1 69 77 3d c8 a3 e7 3d b8 ca 0f 3d
       -0.07933414 0.06040365 0.11310536 0.035105437
000350 7e 01 2f 3e 95 c2 4a 3d 7d ed d7 3c bd b4 67 3d
       0.17090413 0.049501974 0.02635836 0.05656885
000360 3c 77 00 3e c2 7e a9 3d d1 ff 13 3d d3 4e 0e bd
       0.12545484 0.0827613 0.036132637 -0.03474314
000370 4f 17 0a bd 9c 5a dd bd 01 56 a2 3d 6c f6 21 3d
       -0.033713635 -0.10808298 0.0792656 0.039541647
000380 95 ad e1 bc 38 49 7e 3c ee 06 08 bd 3c 6e 99 3c
       -0.02754859 0.015520386 -0.033209734 0.018729322
000390 5f bf 82 3c 04 af b0 3c 0d 82 90 bd 2e c4 3e bc
       0.015960393 0.021567829 -0.07056055 -0.011643453
0003a0 75 dc b9 3d a4 c8 f7 bd 4c 65 a7 3d 8c 23 34 3d
       0.09075252 -0.12098816 0.08173618 0.043979213
0003b0 0a 1f 70 3e ba 54 b1 3d 6c 50 45 bd f7 b6 07 3d
       0.2344934 0.086587384 -0.0481724 0.033133473
0003c0 cc 20 ca bd dc 73 ce bd 6b e6 36 bd 82 f9 a5 bc
       -0.09869537 -0.10080692 -0.044653337 -0.020260576
0003d0 5c 72 0a bd 1a 3a b3 bd 84 4c 7f 3d d4 a9 43 3d
       -0.033800468 -0.08751316 0.06232883 0.047769383
0003e0 29 03 eb 3c 5c 5f 82 3d 8f 8a c3 3d e1 d9 1d bc
       0.02868803 0.063658446 0.09547912 -0.009634466
0003f0 04 d1 e9 bd 00 80 4d 3d 0c 8b 97 3c c2 08 d9 bc
       -0.1141682 0.0501709 0.01849892 -0.026493434

fcs1.bias f4 [256]
000000 3e 2a 34 ba 73 b3 39 3e 41 a5 9a bd 96 9a 42 3e
       -0.00068727497 0.1813486 -0.07551051 0.19004282
000010 b3 5a 16 bd 27 d4 0a be 99 65 f3 bd 86 ac b3 bd
       -0.03670759 -0.13557492 -0.118846126 -0.087731406
000020 85 58 d4 bd f0 df d0 3d 79 a5 03 be 00 f6 d8 bd
       -0.10368446 0.10198963 -0.12856092 -0.10593796
000030 a5 ce a2 3d bb fb 22 bd d2 7a c2 3c 52 93 65 bd
       0.079495706 -0.03979085 0.023740206 -0.0560487
000040 15 a6 92 bd 54 8f 0c be f1 f3 07 3e 3f c5 15 be
       -0.07160584 -0.1372655 0.1327665 -0.14626025
000050 be 4d a0 ba e1 87 ef 3c 3e 28 78 3d 7f f5 ab bc
       -0.00122302 0.029239597 0.060585253 -0.020991085
000060 d2 4f 09 3c d6 76 ed bd c6 f8 a2 3d 2b 8e 14 bd
       0.008380847 -0.11594932 0.07957606 -0.036268394
000070 44 71 85 3d fd ae ba 3d d5 6d 00 3c 90 34 12 be
       0.06515744 0.091154076 0.007838686 -0.14277864
000080 c1 4f a6 bd 70 2c 2e be b9 fe e9 bc 3d 83 b0 3b
       -0.081206806 -0.17009139 -0.028563844 0.0053867386
000090 ea 20 07 3e 4f b7 33 3e c7 04 bc bd b8 dd bd 3d
       0.1319615 0.17550395 -0.09180599 0.09270805
0000a0 75 11 04 be 40 4d 86 bd 33 8b 06 3e 9f 5f b8 bd
       -0.12897284 -0.06557703 0.13139038 -0.09002613
0000b0 10 b6 48 be 7b 23 dc bc 88 82 92 3d c2 e4 e6 3d
       -0.19600701 -0.026872387 0.07153803 0.11274101
0000c0 ce 48 3a 3e 1a fc f7 bc 79 16 ae bd 3c 0f a2 3d
       0.18191835 -0.030271579 -0.0850038 0.07913062
0000d0 cf e8 e2 bd 51 d9 0b bd a6 03 29 bd 1d 87 1d 3e
       -0.11079561 -0.034142796 -0.041263245 0.15383573
0000e0 71 14 39 bd 94 80 fb 3a 40 22 82 3c d7 06 67 bd
       -0.04518551 0.00191881 0.015885472 -0.056403007
0000f0 ac 83 12 be b1 7b bf 3d ae 1b 29 be aa 64 3b bd
       -0.14308041 0.09349764 -0.16514465 -0.045750298
000100 3e 74 03 be 6e a9 c5 bd 6f 05 ac 3d 6b fd b8 3d
       -0.12837312 -0.09651457 0.08399474 0.09032711
000110 4e ad 09 3e d6 41 11 bb 27 5e a6 3d 16 eb 04 3d
       0.13445017 -0.0022164485 0.08123427 0.032450758
000120 9e dc 4e bd b5 71 87 bd bc 7f 5c 3d 1d f4 0a 3e
       -0.050503366 -0.06613485 0.053832754 0.13569684
000130 ef 98 b5 3d 9b 03 02 3c e4 ff 21 3e 15 15 bf bd
       0.088670604 0.00793543 0.15820271 -0.09330193
000140 1a 33 ad 3c 17 1c a1 3d f6 d6 bb 3b 27 b2 ad 3d
       0.021142531 0.07866686 0.0057324125 0.084812455
000150 3b 71 06 3e ab 4d 45 be 80 4f d3 3d f1 3b a0 3d
       0.13129131 -0.19267909 0.10317898 0.07823933
000160 64 d6 3b 3d 4f e6 ab 3c 35 34 a9 3d 60 99 b8 3d
       0.045858756 0.020983843 0.08261911 0.09013629
000170 f4 b4 cd 3d c6 46 a7 bd 6c 95 5a be 26 ec eb 3d
       0.1004428 -0.08167796 -0.21346062 0.11519651
000180 90 c1 35 3e ee 83 a9 bd 40 b8 d7 3d 95 31 ab bc
       0.1774962 -0.08277117 0.1053319 -0.020897666
000190 8a 92 fb 3d 95 1f ba bd e3 78 82 3d 77 d8 0c be
       0.122838095 -0.09088055 0.063707136 -0.1375445
0001a0 29 f5 0e be 86 02 81 bc ae 65 83 bd 4d 5d 1f 3e
       -0.13960709 -0.015748274 -0.06415878 0.15562935
0001b0 9d 29 a3 3d e8 1a cb bd 8b 76 69 3d 17 b3 16 3e
       0.079669215 -0.09917241 0.056997817 0.14716755
0001c0 c7 bc 28 be cc c6 da 3d 93 e5 8d 3b fd 79 2e be
       -0.16478263 0.10682449 0.004330346 -0.17038722
0001d0 d2 ee a5 bb cd 9c 3f be e6 63 de 3c 72 4d 02 be
       -0.00506387 -0.18712159 0.027147245 -0.12724856
0001e0 5a dc 17 3e 0e 0b 41 3e 60 6d b6 3d de 4d 5d 3d
       0.14830151 0.18851873 0.089075804 0.054029338
0001f0 c4 e6 ac bd ee 28 60 3d f8 7e c9 3d a8 95 b3 3d
       -0.084424525 0.054726534 0.098386705 0.08768779
000200 06 2c 39 bd 12 15 bc 3d 52 4b a0 bd 2b 63 2f be
       -0.045208 0.09183706 -0.07826866 -0.17127673
000210 3d 9b 10 bd f4 a9 1b 3e 07 ab ab bd 20 95 77 bd
       -0.035304297 0.1520155 -0.0838223 -0.06044495
000220 04 8e 06 be 7d f7 f1 3d 66 d6 15 be 11 0d 81 bd
       -0.13140112 0.11814783 -0.14632568 -0.0630132
000230 68 2e f2 3d 0d 8f d8 bd 7d 8d 86 bd 5e 6b ea bd
       0.118252575 -0.1057416 -0.065699555 -0.1144626
000240 62 be 5f bc f5 ea 2e bd 74 5b 1f bd 81 97 98 bd
       -0.013656231 -0.04270454 -0.038905576 -0.07450772
000250 ea 91 73 3d d6 1f be 3d 70 23 2c 3c 8f ce 7a bd
       0.059465326 0.09283416 0.010506496 -0.061232146
000260 87 b7 0a bd f2 ea 9d 3d a0 57 0c 3e e1 82 46 3d
       -0.03386643 0.07710828 0.13705301 0.04846466
000270 d8 93 95 3c 82 87 92 bd 74 84 7f bd c9 f5 fb bd
       0.018258974 -0.07154752 -0.062382177 -0.12302739
000280 5c 86 53 3d b0 ae 07 be da 4b e3 3c 8b a7 43 be
       0.051641807 -0.13250232 0.02774613 -0.19106881
000290 f0 7d 85 bd 69 72 c5 3d eb ca c1 3d 97 e1 1a 3d
       -0.06518161 0.09640963 0.09462532 0.037812795
0002a0 c8 cb 58 bb 6b 04 c7 3d 89 6b 02 3c aa 0b 2f 3e
       -0.0033080447 0.097176395 0.007960209 0.17094293
0002b0 e5 eb 05 3e 86 11 cc 3d 83 9f ad 3c 8b ef d1 3d
       0.13078268 0.0996428 0.021194225 0.10250767
0002c0 7b 0a 16 3e 4a bf 06 bc 4a a4 25 3e 84 f6 98 bd
       0.14652435 -0.008224318 0.16175953 -0.07468894
0002d0 6f 50 9e 3b c4 5f 0d bd 26 42 df bd c9 e8 73 bd
       0.004831366 -0.034515157 -0.10901289 -0.059548173
0002e0 44 c9 35 bd 78 95 4e bd 75 d4 3c 3d c0 83 fa 3b
       -0.044381395 -0.050435513 0.046101052 0.0076451004
0002f0 b3 08 8c bc 25 04 35 3e f7 f8 d1 bd 6c d5 a5 3d
       -0.017093992 0.17677362 -0.102525644 0.080973476
000300 6a c2 85 3d d8 13 d3 3d a0 b1 26 3e bb 7a 9c bc
       0.06531222 0.10306519 0.16278696 -0.019101491
000310 c8 98 95 bd c1 e1 23 bd 53 1a 4b bd 10 85 1e be
       -0.07304531 -0.040010218 -0.04958565 -0.15480447
000320 de e1 5c bd 21 52 a4 3d 3e ba 57 3d 7c 34 70 bd
       -0.05392634 0.08023477 0.05266785 -0.058643803
000330 5c 03 44 3d 94 1b 94 bd 03 5a 1c bd 3e 38 c2 3d
       0.047854766 -0.072318226 -0.03817178 0.094833836
000340 1f 89 cc bd 61 92 16 3c 11 55 2e 3e b5 f9 d7 3c
       -0.09987091 0.009190173 0.17024638 0.026364187
000350 75 3a d5 3d 8a e1 86 bd f9 3b e8 3c 0b 03 e2 3d
       0.104115404 -0.06585987 0.02834891 0.11035737
000360 35 e5 41 3d d9 2c 5b 3d dd 74 0b 3e 60 b5 bf 3d
       0.04733773 0.053509567 0.13618799 0.093607664
000370 2f 60 a6 3d 80 56 4b be 8e fc 16 be 76 31 42 be
       0.08123814 -0.19857216 -0.1474478 -0.1896418
000380 66 16 4d 3e 1f 8c 07 be 07 4b 0a be 3e 4e 3e 3d
       0.20028076 -0.13237046 -0.13505183 0.046461336
000390 fe a9 59 bd 21 d8 9a 3d 07 04 14 bd ad d0 88 3d
       -0.053140633 0.075607546 -0.036136653 0.06680427
0003a0 31 a8 30 be b2 d1 3f be 4c 9d 2f 3e 0a df 98 bd
       -0.1725166 -0.18732336 0.17149848 -0.07464416
0003b0 43 81 9e bc e7 80 d0 3d 70 6a b6 bc 55 3b e8 bd
       -0.019348746 0.10180836 -0.02226755 -0.11339442
0003c0 0a 5d 8f 3d e0 46 61 bc e6 94 43 3e 2b 47 13 bc
       0.07000168 -0.013749808 0.19099769 -0.008989136
0003d0 9f af 14 3e b1 8d fd 3d a4 b0 93 3d 6a b3 bb 3d
       0.14520119 0.12380541 0.07211426 0.0916508
0003e0 07 17 d1 3d aa 2c 0c be 59 49 28 3d 69 70 d9 bd
       0.1020947 -0.13688913 0.041085575 -0.10617144
0003f0 fd cc d0 3d d6 ee 37 3d 61 1c a4 3c 0f d5 09 3e
       0.101953484 0.044905506 0.020033063 0.13460182

fc2.weight f4 [256, 260]
000000 74 91 0b be e9 55 0d bb 8b eb e8 3b 6e 54 cc 3d
       -0.13629705 -0.00215661 0.007108157 0.09977041
000010 df 4c 07 be 37 d0 d9 3d 94 86 77 bb 78 4e 67 bd
       -0.13212918 0.10635417 -0.0037769424 -0.056471318
000020 e2 14 f6 3d 2c 27 1e bc 1a 8d a5 3c d6 42 00 3e
       0.12015702 -0.009652894 0.020208884 0.12525496
000030 f7 97 87 bd 32 85 c1 3d 9d af 90 bd 48 67 76 3d
       -0.06620782 0.09449233 -0.070647456 0.06015709
000040 93 13 6b 3d 25 c9 87 3a 3b 89 85 bd 98 95 9d 3c
       0.057391714 0.0010359628 -0.06520315 0.01923637
000050 08 f9 89 3d 86 d7 b8 bd 17 23 08 3e 6a 71 85 38
       0.06736952 -0.09025483 0.13294636 6.363059e-05
000060 08 39 9e 3d 2f 3c 48 bd 10 cf e5 3c ad 72 81 bc
       0.077257216 -0.04888552 0.028052837 -0.015801752
000070 f5 4b 9e bc f6 e7 82 bd 34 63 88 3b 62 2d f3 3b
       -0.019323329 -0.06391899 0.0041622166 0.0074211815
000080 02 a6 73 3d 21 d5 c3 bc 1a d6 9a bd 1e 3b 07 be
       0.05948449 -0.023905339 -0.07560368 -0.13206145
000090 1b 50 9d bd 22 a0 57 3d 6d 05 24 3e 97 b8 21 3e
       -0.076812945 0.05264295 0.16017695 0.15793072
0000a0 a1 d7 c8 bd c7 65 25 3d bf e9 d6 3b 78 be 11 3d
       -0.09806753 0.040380266 0.0065586264 0.035582036
0000b0 2f 8e b2 bc 85 5d ed 3c 4d 2f d7 3d 92 5b 43 bd
       -0.021796314 0.028975258 0.10507069 -0.04769475
0000c0 17 bd 1f 3d 58 98 1d bd fd a9 0b be 8a b1 aa bd
       0.03899869 -0.038475364 -0.13639064 -0.08334644
0000d0 f4 d0 e5 3c d6 de 12 3d ea da 3e bd ce 41 1c bd
       0.028053738 0.035857044 -0.04659549 -0.038148694
0000e0 6f 45 6c be a0 47 c4 3d ac 85 89 bd e5 29 04 3d
       -0.23073362 0.09583974 -0.06714949 0.032266516
0000f0 83 05 8f bd 26 a9 4e 3d b2 32 4c bd cb a8 75 3d
       -0.06983473 0.05045428 -0.049853034 0.059975427
000100 c6 09 e4 3c 5e 37 14 be 16 74 10 be da 84 77 bc
       0.027836692 -0.14474246 -0.14106783 -0.015107358
000110 e5 07 fb bc 87 2b 3e 3c d4 4b de 3d 00 f3 94 bd
       -0.030643413 0.011607057 0.10854307 -0.07272911
000120 9d 9a 22 3e 4f ec d3 bd bb 92 41 3c 02 d7 8d bc
       0.15879293 -0.10347807 0.011814768 -0.017314438
000130 2b 9d 90 bd 45 67 be bd f4 7a fb bc 7f 84 bd bd
       -0.070612274 -0.09297041 -0.030698277 -0.09253787
000140 60 2b c9 3d d9 e5 47 bd a9 3e ee bb c1 b9 94 bd
       0.09822726 -0.048803184 -0.0072706533 -0.07261992
000150 29 6b 9e bc c9 47 2b bc 24 ea 15 3d 1b ae fa 3c
       -0.019338207 -0.010454127 0.036600247 0.030600598
000160 eb 2e 07 3d a7 94 d7 bd bd bc 48 be ab d6 c2 3d
       0.03300373 -0.105264 -0.19603248 0.09513601
000170 ef db 2f 3d 73 66 24 3c bf a2 83 bd 5f b0 8d bd
       0.042934354 0.010034191 -0.06427526 -0.06918406
000180 66 04 a9 3c a4 18 ec 3d 98 8e 2b 3d ed 5b 16 bd
       0.02063198 0.11528137 0.041884035 -0.03670876
000190 d2 af 04 be df f5 15 3d 93 7c 53 3c c1 73 1e 3e
       -0.12957695 0.036611434 0.012908119 0.15473844
0001a0 15 4d ef bd a8 cc da 3c 39 e6 80 bc 1e d6 e1 3d
       -0.11684624 0.026708916 -0.015734779 0.11027168
0001b0 89 f8 2b 3d 6a 3d 80 bd d3 57 cc 3d 0d 55 9c bd
       0.04198507 -0.06261714 0.09977689 -0.0763341
0001c0 5f f4 cb 3d 53 ba 2c 3d 98 84 16 bd 82 f1 15 be
       0.099587195 0.04216988 -0.036747545 -0.14642909
0001d0 8a ea c7 bd d1 c6 14 3d d5 86 62 ba 17 ff 0b be
       -0.09761532 0.03632242 -0.00086413074 -0.13671528
0001e0 12 ae a2 3d a6 e0 88 bd d7 c4 e7 bd 61 ff 2d bd
       0.079433575 -0.06683473 -0.11316841 -0.042479876
0001f0 bf 5c 4f 3d eb 91 61 3d ba 1f cd 3c d4 e9 0c 3e
       0.05062556 0.0550708 0.025039542 0.13761073
000200 8f ef 70 be 71 3d fa bd dd b5 1d 3d 57 04 4d bb
       -0.23528884 -0.1221875 0.038503516 -0.0031283104
000210 d9 36 8f 3c 22 2e e3 bd f0 af 8a 3d 31 59 21 be
       0.017482208 -0.110927835 0.06771839 -0.1575668
000220 f5 cd 23 3d 31 52 16 bd d2 a5 90 3d 29 7a 04 3b
       0.039991338 -0.036699478 0.07062878 0.0020214415
000230 fa 37 99 bd 69 bc 13 3d 89 64 ec 3d 8b 3b 27 3d
       -0.0748138 0.036068354 0.11542613 0.04082827
000240 82 d9 2e bd 4e aa 17 be 89 80 8e bc 13 f1 06 3e
       -0.0426879 -0.1481106 -0.017395275 0.131779
000250 e6 d0 91 3d 48 c4 22 3e 16 44 7a 3d 46 99 a2 3c
       0.07119922 0.15895188 0.061100088 0.019848477
000260 74 23 d7 bd a5 90 fd bc bc 4a 0f bc 29 e1 2a bc
       -0.10504809 -0.030952761 -0.008745845 -0.010429659
000270 82 2d 92 bd 39 e2 4c 3d d4 06 4c be 7c ba f1 bc
       -0.07137586 0.05002043 -0.1992448 -0.029507868
000280 5a e4 e3 bb 0b 66 bd 3d 74 9c bd bd 22 8b b6 bc
       -0.006954712 0.09247979 -0.09258357 -0.02228314
000290 19 e3 f2 3d 6c 91 ce bd c4 44 0c 3d 3a f8 66 bd
       0.11859722 -0.10086331 0.034245268 -0.05638907
0002a0 08 4e 4f bb e7 62 46 bc 1a 03 a0 bc 93 a8 fa 3d
       -0.0031632204 -0.012108541 -0.019532729 0.12239184
0002b0 19 06 45 3c c4 b4 c1 3c cf e6 91 3d b3 26 d8 bd
       0.01202538 0.023645766 0.07124101 -0.10554256
0002c0 a6 55 82 3d c9 11 36 3d aa 83 71 3d 29 6e a2 bd
       0.063639924 0.044450555 0.058963455 -0.07931168
0002d0 bd 72 16 3d 76 3b d7 3d a5 24 c4 bd 2a 61 35 bd
       0.036730517 0.10509388 -0.09577302 -0.044282116
0002e0 6f f2 ae 3d 24 77 8e bd 00 49 ad 3d 97 6b 8a 3c
       0.08542334 -0.06956318 0.08461189 0.016897006
0002f0 15 6c 04 3d 55 cb 84 bd 33 3a 8d bc 30 75 95 bd
       0.032329638 -0.06484095 -0.017239666 -0.07297742
000300 62 89 84 bc d3 54 bb 3d f3 c0 bb bc b9 6c 3b 3d
       -0.01617879 0.09147038 -0.022919154 0.045757983
000310 94 02 70 bd 72 04 55 3d 8b 0a 84 3d 00 26 cc bd
       -0.05859621 0.052006193 0.064473234 -0.099681854
000320 45 25 c4 ba 20 ec d0 3c eb 55 a3 bd da 92 e5 3a
       -0.001496472 0.025503218 -0.07975372 0.0017515079
000330 e8 e3 f6 bc 35 4f ac bd f9 98 7e 3d 28 c1 28 be
       -0.030137971 -0.08413545 0.062157605 -0.16479933
000340 1a fc 29 bc aa e9 00 be cf 82 1e 3d 35 b7 23 bd
       -0.010375047 -0.12589136 0.038698968 -0.03996964
000350 22 29 a3 3d 77 1d ac bd 10 86 17 3d d7 85 27 bd
       0.0796683 -0.084040575 0.036993086 -0.040899124
000360 5e 9a a5 bd a3 f8 3b bd 39 ba c4 3c 70 b7 44 bd
       -0.08086084 -0.045891415 0.02401458 -0.048026502
000370 70 0b d9 bc ca 90 21 3e 41 30 03 3e f6 50 c6 3d
       -0.026494712 0.15777889 0.12811376 0.09683411
000380 26 17 ed 3c d2 37 7c be 5c b8 ab 3d 6b ee 29 3d
       0.028941702 -0.24630669 0.08384773 0.04148714
000390 b8 58 0c 3d 65 d3 d2 bd db b0 ec 3c 45 d5 07 bd
       0.034264296 -0.102942266 0.028892925 -0.033162374
0003a0 44 d4 11 bc bb 24 18 3d 29 b8 ab 3c fd 70 8b bc
       -0.008900706 0.037144404 0.020961838 -0.01702165
0003b0 55 26 6c 3d 6f 10 86 bd bc 50 b8 3b fb d7 e9 3c
       0.057653744 -0.06546103 0.0056248587 0.02854537
0003c0 88 95 b9 3b 79 89 6e b9 a7 3f 93 3c a4 98 02 be
       0.0056635775 -0.00022748661 0.017974688 -0.1275354
0003d0 03 d1 76 3d f9 0c 4a 3d 19 c1 a1 3d a9 fa 13 3d
       0.060257923 0.049328778 0.078981586 0.03612772
0003e0 e7 09 ff 3d da ea a7 3c 9e c6 9a 3c 6e 0e 1c 3d
       0.124530606 0.020497728 0.018893536 0.0380997
0003f0 6b b9 87 bd a0 c5 37 bc c1 27 57 3c 01 b2 2a bd
       -0.066271625 -0.011216551 0.013132037 -0.041673664

fc2.bias f4 [256]
000000 84 2f 82 bd 79 5e d8 bc b9 72 63 3d c6 70 06 3c
       -0.06356719 -0.026412236 0.05552933 0.008205598
000010 cc f9 82 bc 36 97 82 3d 37 cb cc 3a c1 b9 2a bd
       -0.015988253 0.063764974 0.0015624528 -0.041681055
000020 c3 7f a7 3c 48 48 19 3c ea 44 af 3c 16 0b f4 37
       0.020446664 0.009355612 0.021395165 2.9092229e-05
000030 c4 02 40 bc 2c 69 3b bd c6 e5 87 3d 04 02 b3 3d
       -0.011719409 -0.045754597 0.06635623 0.08740619
000040 0e 46 f0 3d c6 7d 8e 3d 53 70 b7 bc fb 13 28 bd
       0.11732112 0.06957583 -0.022392428 -0.04103468
000050 8e 90 28 3d b2 fa 1a 3c 9f 3f cb 3d 82 3d 3f bd
       0.041153483 0.0094591845 0.09924244 -0.046689518
000060 37 98 1f bd 25 40 05 bd ef 47 35 bb 3c d1 32 3d
       -0.038963523 -0.032531876 -0.0027661284 0.043656573
000070 bb 6b fb bc 52 29 5f 3b d8 56 aa bc e5 94 0b 3d
       -0.030691018 0.0034051728 -0.020793363 0.034077544
000080 b5 f9 1e bd 47 39 8f bd 3e 3b 93 3d 88 60 c3 3c
       -0.038812358 -0.06993347 0.07189034 0.02384974
000090 14 bb c7 bc e2 3b 3f 3d 9f 3c ea bc 5e 96 9d 3d
       -0.024381198 0.046687968 -0.02859336 0.07694696
0000a0 4d f8 4b 3d 2c 83 09 bd e3 19 96 3d b3 3f fb 3d
       0.049797345 -0.03357236 0.07329156 0.12268009
0000b0 92 70 9e bd e8 40 4d bd c5 2a 53 bc 8f a6 ba 3d
       -0.07736315 -0.050110728 -0.012888615 0.091138
0000c0 25 25 fd bc 0a 86 a9 3d 80 89 a6 bd 4d e1 91 bd
       -0.030901501 0.08277519 -0.08131695 -0.07123051
0000d0 8c 51 cd bd 2b e7 1e 3b 53 f2 90 bc a0 fa 88 bc
       -0.100253195 0.0024246674 -0.017693674 -0.01672107
0000e0 5f c4 ae bd 48 69 87 bd e3 5e de 3d e3 9a 44 3c
       -0.085335486 -0.06611878 0.10857942 0.0119998185
0000f0 61 5b 81 3c 67 1e 4d bd bb dd aa 3d 58 9c 83 3d
       0.015790643 -0.050077822 0.08343073 0.064263046
000100 47 04 90 3d 67 ec da 3c 9e 21 70 bd 93 39 99 3d
       0.07032066 0.026724054 -0.05862581 0.074816845
000110 62 32 e8 3d 41 30 06 3c 15 3c 94 3d a4 55 be bc
       0.11337735 0.008190216 0.07238022 -0.023234196
000120 12 e5 8a bd 92 40 b7 bc f7 2d 09 bd cf 99 36 bd
       -0.06781973 -0.022369657 -0.0334911 -0.044580277
000130 7f 94 fe 3d c9 02 2c bd 10 9f c2 3d a0 cf ca bd
       0.12430667 -0.041994844 0.09502995 -0.099028826
000140 c1 bb 72 3d 43 79 fd 3d a5 1f 2d 3d 4c fe de 38
       0.059261087 0.123766445 0.042266507 0.000106331514
000150 23 08 6b bd 02 a9 31 3d 57 96 bb 3d e7 d5 f2 3b
       -0.057380807 0.04337407 0.091595344 0.007410753
000160 41 f8 40 3d 9c ea c2 3d e1 f9 46 3d 4f f1 3e bd
       0.047111753 0.095174044 0.048578147 -0.04661685
000170 be 44 48 bd e1 ac b7 bd 4c 2b 4d bb ca 4b 3b 3d
       -0.048893683 -0.08968521 -0.0031306325 0.045726575
000180 2f b1 6e bd de 10 93 bc b3 a3 05 bd 33 55 91 3d
       -0.058274444 -0.017952379 -0.03262682 0.070963286
000190 5a b3 96 bd 6f f2 5a 3d 9f 81 83 3d 21 1f cc 3a
       -0.07358427 0.05345386 0.06421208 0.0015573242
0001a0 55 8b 6e 3c 32 62 82 3d 15 ae 0f bd aa 0e 28 3d
       0.0145595865 0.063663855 -0.035078127 0.04102961
0001b0 c4 e6 1a 3c 0e 9d 40 bd c4 fd 95 3d 32 40 8f 3d
       0.009454433 -0.04702478 0.073237926 0.06994666
0001c0 02 be f2 bc eb 4b a1 bb d1 b9 ac bc 57 64 b0 bd
       -0.029631618 -0.00492238 -0.021084698 -0.08612888
0001d0 27 20 ac bd 6c 09 9c bd 2e ef 24 3e e2 b8 70 3d
       -0.0840457 -0.076189846 0.16106865 0.058770068
0001e0 56 38 df 3d a1 2f 17 bd 42 65 80 3b 45 a5 55 39
       0.10899417 -0.036910657 0.003918321 0.0002037483
0001f0 f7 e9 c0 bd 3d 93 72 bc d4 b5 31 bd 7a 2f 0e bc
       -0.09419625 -0.014805612 -0.043386295 -0.0086783115
000200 ba 67 cb 3c 47 45 cf 3d 91 3a f0 bc 25 69 8d 3d
       0.024829734 0.101206355 -0.029324802 0.0690482
000210 ec af 91 bd 15 5a 03 3e 92 6b da bd 02 32 ee bc
       -0.071136326 0.12827332 -0.10665049 -0.02907658
000220 44 ab e1 3c 8d 0f 05 be 99 f4 1e 3d 7e 7b a5 bd
       0.027547486 -0.12994213 0.038807485 -0.08080195
000230 0c b4 58 bc 41 2c 34 bd 0c e5 82 bc fb 68 c4 bc
       -0.01322652 -0.043987516 -0.015978359 -0.02397584
000240 71 e7 d5 3c 90 b1 bc bd 85 34 ed bd 01 54 dc 3c
       0.026111336 -0.09213555 -0.11582283 0.026895525
000250 5d 3b cf 3c 94 d7 95 bd 2e 7c 06 bd 20 5a f8 bb
       0.025296861 -0.07316509 -0.03283327 -0.007579103
000260 60 c1 b8 bd b0 9a 63 bc c8 d3 88 3c 74 d0 6f 3c
       -0.09021258 -0.013891861 0.016702548 0.014637101
000270 f9 3d dd 3d df 27 c3 3c 7a d2 0f 3d db 65 26 bd
       0.10802836 0.023822723 0.035112835 -0.04062448
000280 df 58 6e bd 7e 03 66 3d bc 50 26 3c 5c 2c 02 be
       -0.058190223 0.056155674 0.0101510845 -0.12712234
000290 40 d9 f8 bc 58 b3 d9 3d 48 3a dc bd e5 c6 dd bd
       -0.03037703 0.1062991 -0.10753304 -0.10828952
0002a0 c0 e9 40 bd c9 83 d2 ba f2 97 fd 3d 05 d0 b3 bd
       -0.04709792 -0.0016061004 0.12382497 -0.08779911
0002b0 d7 72 52 3d 31 6f a8 bc b8 bc ec bb 76 e2 ae bd
       0.05137905 -0.020560833 -0.0072246455 -0.08539288
0002c0 24 1d 02 bd a8 36 76 3c bb 4e 8e 3d 9b b1 cd bc
       -0.031766072 0.0150276795 0.069486104 -0.025109103
0002d0 9f 91 d8 3d 10 e0 05 bd 09 97 b2 3c cb 2e ed bc
       0.1057465 -0.032684386 0.021800535 -0.028952977
0002e0 c2 66 ca bd 4a 0c 72 3b 33 18 84 3c 9f 2c 00 3e
       -0.09882881 0.0036933594 0.01612482 0.12517022
0002f0 1c b0 16 bd 37 07 9b bc c7 86 50 3d 1f b3 e9 bc
       -0.036789045 -0.018924339 0.050909784 -0.028527794
000300 fa 0b 7d 3d 65 ef eb bb 53 6e 90 3d 44 f4 58 bd
       0.061779 -0.007200169 0.07052293 -0.052967325
000310 71 45 b4 bc ce 04 be bc 42 cd 87 bd da a2 c7 3d
       -0.022005768 -0.02319565 -0.06630947 0.09747858
000320 96 88 f9 3d 82 a8 8a bd 1d 56 c3 bc d9 40 b9 bd
       0.12184255 -0.067704216 -0.023844773 -0.09045572
000330 08 03 a2 bd e7 34 1e bd 51 03 31 bd fb 6c f8 3a
       -0.079107344 -0.03862467 -0.043216053 0.0018953377
000340 41 49 5f 3c e7 02 82 bd aa 91 f9 bc 64 d3 f9 3c
       0.013628305 -0.0634821 -0.030464966 0.030496307
000350 dd cc e5 bd 42 14 bb bc 2f 2f bc bd e0 9f bd 3d
       -0.11220715 -0.022836808 -0.09188687 0.09259009
000360 7a aa 1a 3d 4c 2b 0f bc 64 39 3a bd de 00 21 bd
       0.037760235 -0.00873835 -0.04546489 -0.039307468
000370 1d d1 62 3b 17 80 42 3d b9 d2 74 3d e0 e2 ff bb
       0.0034609505 0.047485437 0.059771273 -0.007809028
000380 ad b3 2f 3d c6 f1 61 3d 68 16 ce 3b 75 f2 49 bd
       0.04289596 0.055162214 0.006289292 -0.04930349
000390 8b ce 6e 3c 4e 98 77 3d 75 f8 2e 3d b0 5e 87 3d
       0.014575611 0.060447983 0.042717416 0.06609857
0003a0 fb e3 e7 3d 08 96 81 3c 12 83 76 bd 86 20 02 bd
       0.11322781 0.01581861 -0.060183592 -0.031769298
0003b0 13 1b 95 3d df a8 0a 3d 13 86 76 bb 30 a4 6b 3d
       0.072805546 0.033852454 -0.0037616536 0.05752963
0003c0 d1 ae 08 3e 6b 5d 46 3d 27 2b 0f bd 1e b9 82 bd
       0.13347937 0.048428934 -0.034953263 -0.063829646
0003d0 5c 9c eb 3d da c8 ca 3c 85 6c 3d bc 22 cd de bb
       0.115044326 0.024753977 -0.011561518 -0.006799356
0003e0 f7 d7 c8 bc cb bf d4 3d 70 c6 82 bb fe 12 cc 3d
       -0.024517043 0.10388144 -0.0039909407 0.0996456
0003f0 f1 03 4b 3c 44 54 d2 bd 1e b0 58 3c 16 dd 1d bd
       0.012391076 -0.10269979 0.013225583 -0.038540922

fc3.weight f4 [128, 256]
000000 a5 1a 71 be cc ba 10 be 92 58 5b 3d 62 3e f8 bc
       -0.2354532 -0.14133757 0.053551264 -0.030303184
000010 77 58 9d bd e5 a7 18 3c aa ce 99 3d 85 e7 c2 bd
       -0.07682889 0.009317373 0.07510121 -0.09516815
000020 57 e8 bc bd 70 3c 0c 3d 29 b3 1a bd 40 cd 97 bd
       -0.09224003 0.034237325 -0.037768517 -0.07412195
000030 7b 29 27 be 13 3e 48 3d 10 85 fe 3d 17 49 c1 bd
       -0.16324417 0.048887324 0.124277234 -0.09437769
000040 d9 1b 0b be ea 54 98 be bb de ad 3d 0b 26 d2 bd
       -0.13584842 -0.29752284 0.08489748 -0.10261162
000050 bb 1a ed bc 45 02 71 3d 7b 32 47 3d 07 98 4c bd
       -0.02894341 0.058840055 0.048632126 -0.049949672
000060 d4 ea 7b 3d 1a 45 fa bd f8 38 46 3c 43 7a ef 3d
       0.061503246 -0.12220211 0.012098543 0.116932414
000070 31 2d 80 bc 17 84 0e be 1d 21 47 bd 58 7b b1 bb
       -0.015646549 -0.13917576 -0.048615564 -0.005416315
000080 d8 e6 2e bd e5 26 87 3e 2c 1d e1 3b 67 e3 d8 3c
       -0.04270062 0.26396862 0.0068699326 0.026475621
000090 7c b5 b9 3d 4d 33 57 3d 60 0c 09 3e 8a 54 49 3d
       0.090678185 0.05253916 0.13383627 0.04915289
0000a0 13 c9 c6 3d 18 bd e8 bd fa 3a 7f bd de d0 f3 bc
       0.097063206 -0.11364192 -0.062312104 -0.029762682
0000b0 e1 1d b1 3d 6c e6 1b bc 60 73 55 3d 03 85 72 3d
       0.08648277 -0.009515386 0.052111983 0.05920888
0000c0 f9 bd 22 3d 66 b1 80 bc 4a 12 64 3d 78 4a ce 3c
       0.039731953 -0.01570959 0.055681504 0.025181994
0000d0 a9 81 1e be 20 71 1b bc 8b 2e 98 3c 04 b1 18 3e
       -0.15479149 -0.00948742 0.01857688 0.14911276
0000e0 81 c9 34 3e f4 67 b7 3d 8e ca 06 3c d9 6e 50 bd
       0.17654993 0.08955374 0.008227004 -0.050886963
0000f0 58 10 83 be be 73 93 3d eb 44 11 bd 33 ae b4 3d
       -0.25598407 0.071998104 -0.035466116 0.08822288
000100 7b db b2 bc a3 d3 ab bd bf 38 14 be 72 33 5b bd
       -0.021833172 -0.08389976 -0.14474772 -0.05351586
000110 42 d6 85 3d 8a b4 1e 3d 4e f6 95 bd 4c f0 57 3e
       0.06535007 0.038746394 -0.073223695 0.2108776
000120 d9 9c 1f 3e 54 21 0b 3d cd 2e 01 bc a6 5e 21 3d
       0.15587176 0.03396733 -0.007884693 0.039396904
000130 32 ed 75 bd a5 4d 3e bd f7 b5 25 bd 9d 04 da 3c
       -0.06004066 -0.046460766 -0.04045674 0.026613528
000140 3d b0 2d bd 40 ec ad bd 85 d7 5b 3e c8 f9 3f 3c
       -0.042404402 -0.08492327 0.21468933 0.011717267
000150 5c 83 a3 bd 28 03 88 3d 42 9a 72 3d 77 3e 2f be
       -0.07984039 0.06641227 0.059229143 -0.17113672
000160 23 68 4b bc 10 d1 0d bd cd df 71 3a 3b ab a2 bc
       -0.012414965 -0.034623206 0.00092267693 -0.01985704
000170 cf d5 f4 bc 51 86 a5 bd 64 81 02 bc 7f a2 9e 3d
       -0.029887108 -0.080822594 -0.007965419 0.077458374
000180 9c 4b fe 3b bc 0b b5 3d ea fa 8b 3d bc 5e 84 bd
       0.007760478 0.08840129 0.068349674 -0.06463382
000190 7e 03 f7 3d f6 ba 30 3d d7 9f b2 bd 67 12 0f be
       0.12061213 0.04314705 -0.08721893 -0.13971864
0001a0 1c 6b ef bb 98 ec 9b bd 8c f9 b0 bd 4b c9 04 3e
       -0.0073064696 -0.07613486 -0.08641347 0.12967412
0001b0 17 db 05 3d e3 cc 27 bc 9b 49 96 bc 39 c4 2f 3d
       0.032679643 -0.01024172 -0.018345645 0.042911742
0001c0 28 9a 94 bd 70 a3 c5 3d 9c 37 43 be ec 07 f5 3d
       -0.072559655 0.09650314 -0.19064182 0.119644016
0001d0 b0 57 02 3e ea f0 13 3d e2 69 8b bd 28 42 6b bb
       0.12728763 0.036118425 -0.06807305 -0.0035897586
0001e0 b3 f8 30 bc 09 3a 14 be c7 5e 36 3d 5a 40 54 bd
       -0.010801482 -0.14475264 0.04452398 -0.051819183
0001f0 7f 8f 8c 3d c8 75 88 bd 01 b3 f2 3d d9 cb 88 3c
       0.06863307 -0.0666309 0.118505485 0.016698765
000200 55 c3 64 bc db 5a 78 be 91 f6 f8 3b cb 12 ea 3d
       -0.013962586 -0.24253409 0.0075977524 0.11429366
000210 52 ce 8c bd 14 1d fd bd 1e 2d 43 bc a1 57 8a bd
       -0.0687529 -0.12359062 -0.011912612 -0.06754995
000220 75 59 cf 3d 73 f5 ad 3d ee 9c 24 bc 8a 77 14 3e
       0.101244844 0.08494081 -0.010047181 0.14498726
000230 1f 90 87 3d d6 d7 06 3e 59 fc 46 3e f4 6e d9 3d
       0.06619286 0.13168272 0.194322 0.10616866
000240 cc 2b 02 be c5 64 45 3a 05 23 9e 3d 0c 35 70 bd
       -0.1271202 0.00075299694 0.07721523 -0.05864434
000250 ba 82 d2 bd 76 1f 93 bc 56 05 0a 3e b7 f3 0b be
       -0.1027884 -0.017959338 0.13478598 -0.13667189
000260 78 7b 99 3c 42 51 21 3d c2 97 0d 3e a3 e2 5c bd
       0.018735632 0.039384134 0.13827422 -0.053927075
000270 33 b7 16 bc 4c fa 30 bc b4 b3 4e 3d fd 29 b0 3d
       -0.009198952 -0.010801863 0.050464347 0.08601759
000280 e1 c4 eb 3d 7e 19 63 bd 9f 84 96 bd 36 b4 0e 3e
       0.11512161 -0.055444233 -0.07349514 0.13935933
000290 46 43 6d bc 96 c1 f5 bc e4 09 8e 3d 2e 6f f7 3d
       -0.014481371 -0.029999536 0.0693548 0.12081753
0002a0 fe 1f fd 3b c4 d4 bd bd 7f 7f 9e 3d 1e 01 0e bd
       0.007724761 -0.092690974 0.07739162 -0.034669034
0002b0 ae e4 58 3d 31 4a ca 3c 27 74 9b bc 97 82 2e 3d
       0.05295246 0.02469358 -0.018976284 0.04260501
0002c0 80 fe 9c b9 9f 14 2a 3c 07 14 3d 3d 49 54 87 3c
       -0.00029944256 0.010380893 0.046161678 0.016519682
0002d0 f8 a0 1e 3e 3d 15 81 3c 95 0a e5 3b 60 9d 84 bb
       0.15491092 0.015757198 0.006989787 -0.004047081
0002e0 ac 1e 07 3e 91 6f dc 3d 2e 68 42 3b a4 c5 d4 3b
       0.13195294 0.10763467 0.0029664147 0.006493287
0002f0 48 04 8c 3d 02 2f d0 3c 26 45 25 3d 67 03 73 3b
       0.06836754 0.02541304 0.04034915 0.0037080885
000300 37 b4 c1 bb f9 a5 99 3d 24 79 bb 3d 92 a0 b9 3d
       -0.005911376 0.0750236 0.09153965 0.090638295
000310 d5 6a 83 bd 44 ba fb bd 6b 59 9a 3d b6 00 8b be
       -0.06416861 -0.12291387 0.075365864 -0.2714898
000320 18 aa 64 bd 24 d6 b8 bd 74 2a cd 3d 9d f3 13 bd
       -0.055826277 -0.09025219 0.10017863 -0.036121
000330 5b 14 a9 3c e8 80 14 3a 9a ec 17 3c 7d 93 8c bc
       0.020639589 0.00056649605 0.009272719 -0.017160172
000340 ff 46 a0 bd 2b 0b cd bc cd 2f 16 be 2c 85 17 3e
       -0.078260414 -0.02502974 -0.14666672 0.14796895
000350 cd 63 5d 3d be 7e 36 be 8d 80 0c 3e ef 5a 37 3d
       0.054050256 -0.17821786 0.13720913 0.044764455
000360 95 c4 e2 3d 28 7e f4 3d 28 96 6c 3a da d2 2a be
       0.11072651 0.11938125 0.00090250606 -0.16681996
000370 01 22 0c 3d 6a ee a0 bd db 6f c4 3d a7 6e 3d be
       0.034212116 -0.07857974 0.09591647 -0.18499242
000380 f1 be d5 3d fd a0 18 be cb 33 dc bd ce 2e 91 3d
       0.1043681 -0.14905162 -0.10752066 0.070890054
000390 30 6b 6b ba 6c c3 31 bd a8 7b 31 be b1 04 be ba
       -0.0008980511 -0.04339926 -0.17332327 -0.0014497248
0003a0 92 c9 3f be 77 7d cd 3d 3d d5 d0 3d b1 8d a2 3d
       -0.18729237 0.10033696 0.10196922 0.07937182
0003b0 03 92 00 3e da 84 df 3d cd c1 20 bc 1b 9b a0 3c
       0.12555699 0.10914011 -0.009811831 0.01960521
0003c0 23 87 99 bd d6 eb d2 bc cb ad 93 3d b4 b2 b5 3c
       -0.074964784 -0.025747221 0.07210883 0.022179939
0003d0 64 5b 23 3d bb fb 1e be 6c 6e 1a 3e 5c bc ac bd
       0.03988208 -0.15525715 0.15081185 -0.08434364
0003e0 c4 87 ce bc 07 7c 8d 3c 45 c7 ca 3c 0f fa 02 3d
       -0.025211222 0.017271055 0.024753222 0.031976756
0003f0 b5 23 1c 3d 91 bc a3 3d 60 4a aa 3d ba 96 83 3e
       0.03811999 0.079949506 0.08314967 0.25700933

fc3.bias f4 [128]
000000 18 5d aa 3d 00 19 bc 3d 7d c4 0b be 66 46 30 3e
       0.083185375 0.09184456 -0.13649173 0.17214355
000010 14 66 43 bd 93 ff d0 3a cf e5 79 3d 8a c7 0e 3d
       -0.04770477 0.0015945308 0.06101018 0.034858264
000020 cf 3a 21 3e 08 fe 00 be 1a d7 99 bd ba 41 aa 3c
       0.1574509 -0.12596905 -0.075117305 0.020783294
000030 b1 45 c2 bd 07 50 3d 3e 4c 76 45 3d 28 32 a5 3d
       -0.09485949 0.1848756 0.04820852 0.08066207
000040 f3 c6 26 bd 0a f4 2a 3e f4 35 e7 3d b2 61 3a 3e
       -0.040717077 0.16694656 0.112895876 0.1820133
000050 5a ed 1a 3e 41 14 04 bd c7 f7 9e bd 0c 27 e0 bd
       0.15129605 -0.032245878 -0.077621035 -0.109449476
000060 de 2a 90 3d 33 c8 e7 3d ec 04 d0 bd 46 1d 81 3d
       0.07039426 0.11317482 -0.10157189 0.063044116
000070 1b b6 21 be 27 d7 01 3e b6 d9 2b 3e a8 a4 60 3d
       -0.15792124 0.1267973 0.16782269 0.05484453
000080 ab 34 e4 3d 68 95 da 3d 38 5f 21 3e de df ea 3d
       0.11142858 0.10673028 0.1575898 0.114684805
000090 45 c5 37 3e 57 a9 34 bd 08 74 32 3e e4 f7 e7 3d
       0.17946346 -0.044106808 0.17427075 0.11326578
0000a0 54 47 07 3d b2 36 04 3e d7 a9 71 3d 49 b4 09 3e
       0.03302701 0.1291149 0.058999863 0.1344768
0000b0 c1 9a ee bd ae df 56 bd c8 63 43 3e 55 04 9f 3d
       -0.11650611 -0.05245941 0.19081032 0.07764498
0000c0 b4 d7 b3 3d ce 93 72 bd bd 48 30 3d 93 ff 63 bd
       0.087813765 -0.05922299 0.04303812 -0.055663656
0000d0 91 b5 c1 3d 2d 72 12 bb 42 f2 1d 3e 24 4e d1 3d
       0.09458459 -0.0022345886 0.15424445 0.10219982
0000e0 e1 bd 3d bc f6 ad d9 bd a8 f8 2e 3d eb 01 1d 3e
       -0.011580915 -0.106288835 0.042717606 0.15332763
0000f0 c3 ab 00 bd 96 a2 b4 3d 31 bf c4 3d d5 9d 0d 3e
       -0.031413805 0.08820073 0.09606779 0.1382974
000100 ab 9f d4 bd 59 e6 83 3d 2c 8b b4 3d a0 fc c9 bd
       -0.10382017 0.0644042 0.088156074 -0.098626375
000110 6e 40 5b bc 6a 8c c5 3d 55 6e 32 3d cf 4a 10 3e
       -0.01338206 0.096459225 0.043562252 0.14091037
000120 70 6b d5 3d 79 76 3a 3d cb cc 09 be 87 dd 45 3e
       0.10420883 0.04552314 -0.13457029 0.19322787
000130 18 ee df bd 7d 79 e1 3d 6f d3 29 3e b8 1d 0a be
       -0.10934085 0.110095 0.16584562 -0.134879
000140 50 9c ad bd 5c 9e 57 bd 13 79 84 bc 37 3a f4 bd
       -0.0847708 -0.052641258 -0.016171014 -0.11925166
000150 66 67 c4 bd 2e a6 f8 3d 20 ba 9c 3d b8 8a 0c 3e
       -0.09590034 0.12141071 0.07652688 0.13724792
000160 30 fe ae 3d cb 27 24 be a3 82 3b bd e6 56 9b 3d
       0.08544576 -0.16030805 -0.04577888 0.07584934
000170 b5 36 4a 3e 0e df 81 3d 9d 16 b5 bd fa ff ee bd
       0.19747432 0.063413724 -0.08842204 -0.116699174
000180 fc 05 03 be 34 74 a8 3d 7e ae 8f 3d 8c 25 ed 3d
       -0.12795252 0.08225289 0.070157036 0.11579427
000190 01 aa 36 3e ec 30 96 bd 20 26 f8 3d 60 aa a8 bd
       0.17838289 -0.0733355 0.12116647 -0.082356215
0001a0 ed 35 13 be 1b 5c 26 3d d6 1e b1 3a 6c 9f 0d be
       -0.1437604 0.040615182 0.0013513218 -0.13830346
0001b0 a7 5d fb 3d 6c 04 05 3e 95 58 32 bc 3e 1e d9 3d
       0.12273722 0.12989968 -0.010885377 0.10601471
0001c0 ab c7 95 bd c6 06 e9 3d 42 ad 0b 3e a9 6f 82 3d
       -0.07313474 0.11378245 0.13640311 0.06368954
0001d0 ba eb b5 3d 8e 70 54 bb bb a2 4b 3e 82 7b 91 bd
       0.08882852 -0.003241572 0.19886295 -0.07103635
0001e0 03 9f b3 bd 7c 1c b2 3d 26 8a 10 be 9a 32 27 3e
       -0.087705635 0.08696839 -0.141152 0.16327897
0001f0 bc 5f 90 3d d0 b4 1c 3e 9b 8c 2f 3e 84 58 b8 3d
       0.0704951 0.1530335 0.1714348 0.09001258

fc4.weight f4 [1, 128]
000000 51 c1 5e 3e e1 87 3d 3e fd 9e 85 be 7b 26 22 3e
       0.21753432 0.18508865 -0.2609786 0.15834992
000010 6d d9 a1 be 7f f3 4a be f5 e0 28 3e a5 bb 8c 3e
       -0.31611195 -0.19819449 0.16492064 0.2748691
000020 ab 11 13 3e ce 24 2d bf b2 91 7a be f8 a1 88 3e
       0.14362209 -0.67634284 -0.24469641 0.26686072
000030 31 69 51 be 6b 04 8d 3d f0 b7 82 3e 14 30 e3 3d
       -0.20450284 0.06885608 0.25530958 0.110931545
000040 9a c4 02 bf 02 d6 ba 3d 0a 09 26 3e c5 72 93 3d
       -0.5108124 0.0912285 0.16214386 0.07199625
000050 74 8f ef 3d 13 72 03 bf 88 df 60 be 25 d7 f5 be
       0.116972834 -0.5134594 -0.2196027 -0.48015705
000060 9b d3 72 3e 25 0d e3 3d 31 cd af be 93 71 6a 3e
       0.23713534 0.110864915 -0.34336236 0.22894888
000070 93 fb b8 be c7 f3 49 3e 34 83 c7 3d 6e 90 1f 3e
       -0.36129436 0.197219 0.09741822 0.1558244
000080 bf f4 49 3e 0b c6 67 3e b9 b2 0e 3e 40 d0 dc 3d
       0.1972227 0.22634141 0.13935365 0.10781908
000090 71 a5 c0 3d e5 6e 8b be 94 22 f7 3d d9 6f d6 3d
       0.094065554 -0.27233043 0.12067142 0.10470552
0000a0 ca 47 76 3e 3b 7d bb 3d 5c 6c 87 3e f5 ed 98 3e
       0.24050823 0.09154745 0.2644986 0.29869047
0000b0 23 b7 85 be bd 9e 51 be 7b ad 98 3d 33 a7 0e 3e
       -0.26116285 -0.2047071 0.07454964 0.13930969
0000c0 11 63 1a 3e f3 2f 5a be a1 a5 20 3e 2d 32 88 be
       0.15076853 -0.21307354 0.15688182 -0.2660078
0000d0 55 d4 74 3e 48 94 de be 36 7e 95 3e 65 1f 20 3e
       0.23909123 -0.43472505 0.29197854 0.15636976
0000e0 14 26 dc be 2c 95 ed be 3b a5 3a 3e de b9 09 3e
       -0.429978 -0.46402872 0.18227093 0.13449809
0000f0 3c 43 93 be d0 c3 20 3e 24 43 fc 3d 59 af e4 3d
       -0.28762233 0.15699697 0.123174936 0.111662574
000100 7c ff ab be 0d 53 7a 3e 42 23 6e 3e 11 59 07 bf
       -0.33593357 0.24445744 0.23255637 -0.5287028
000110 de fc dd be 5c af 95 3e 3c bc 52 3e 25 00 3f 3e
       -0.43356985 0.2923535 0.20579618 0.18652399
000120 76 40 0d 3e b8 a1 84 3e 04 c4 47 be 38 23 fb 3d
       0.13794121 0.25904632 -0.19508368 0.12262577
000130 3e 38 5f be 13 84 00 3e 81 58 da 3d 25 d6 85 be
       -0.21798798 0.12550382 0.10661412 -0.26139942
000140 13 6d 83 be 41 f6 98 be 45 23 d0 be bc 7d 89 be
       -0.25669155 -0.29875377 -0.4065191 -0.2685374
000150 4a 27 a5 be c5 00 1b 3e 5d bb 5a 3e 0d 5f 14 3e
       -0.32256538 0.15137012 0.21360536 0.14489384
000160 ec 09 92 3e c6 a8 5d be 37 03 0e bf 7a d7 08 3e
       0.28523195 -0.21646413 -0.55473655 0.13363448
000170 9a 39 85 3d 86 4f 62 3e 90 23 0b bf 61 f3 87 be
       0.06505127 0.22100648 -0.5435114 -0.2655287
000180 9f 52 64 be 5b 1a 3a 3e 15 f8 d4 3d 9b 3d 6f 3e
       -0.22297142 0.18174116 0.103988804 0.23363344
000190 e6 44 d8 3d 11 6b ea be 7b 01 8e 3d 56 58 8e be
       0.10560016 -0.4578481 0.06933876 -0.2780177
0001a0 16 53 38 be d9 89 b3 3e 97 1a 18 bf 8b f7 58 be
       -0.18000445 0.35066107 -0.5941557 -0.2118818
0001b0 f0 74 3b 3e 49 ec 1c 3e a0 ab 8e be 54 a0 4a 3e
       0.18306327 0.1532451 -0.27865314 0.19787723
0001c0 e7 9d e5 be 86 0c eb 3d 5f 64 05 3e 54 d3 21 3e
       -0.44847032 0.11476998 0.1302657 0.15803272
0001d0 a3 38 bc 3d db 88 a9 be e2 be ba 3d 68 b1 d0 be
       0.0919049 -0.33112225 0.09118439 -0.4076035
0001e0 08 2d a7 be 29 32 38 3e e0 a4 06 bf 15 7b 29 3e
       -0.32651544 0.17987885 -0.5259533 0.16550858
0001f0 cd d1 1d 3e b1 54 91 3e d9 1e 06 3e 5a 3d 9f 3e
       0.15412064 0.28384927 0.13097705 0.31101495
